3.Machine_learning/4.neural_networks/1. rt_webcam_class_PyTorch/my_model.onnx (onnx, 246755 bytes, 10 tensors)

conv1.bias f4 [6]
000000 94 6a d5 3d 74 eb c5 3d 49 90 ff bd 8e 1d 16 3e
       0.10420719 0.0966405 -0.12478692 0.14659712
000010 a7 b2 85 3e 90 b5 90 bd
       0.26112863 -0.0706588

conv1.weight f4 [6, 3, 5, 5]
000000 5c 13 4b bc 86 58 be bd f4 77 04 bd 13 ca 8c 3a
       -0.012394752 -0.09294228 -0.03234096 0.0010741375
000010 f8 b1 89 3d f9 61 ae 3d fa 98 a4 3b 98 57 d1 bd
       0.06723398 0.085147806 0.005023119 -0.10221785
000020 63 03 52 3d c8 36 51 bd 72 cc b3 3d 92 c6 1a bc
       0.05127276 -0.051077634 0.08779229 -0.009446757
000030 c2 66 50 3d 76 1f f9 3d 94 ff c8 3d 0e 6b b7 bd
       0.050879247 0.12164204 0.09814373 -0.08955966
000040 e7 3e 92 3d c8 40 c3 bd f3 5c 68 bd 69 da cf 3d
       0.07140904 -0.095338404 -0.05672927 0.1014908
000050 72 b6 e9 bd 6b 67 2d 3b ce 5b ca 3d 6d f7 f2 bd
       -0.11411752 0.0026459347 0.098807916 -0.11863599
000060 65 9b ab bd 94 2e bb 3d 36 e2 af bd a6 b4 c3 bd
       -0.083792485 0.091397434 -0.08588068 -0.0955594
000070 21 e0 9a 3d 89 7f 7c bb 37 7f 85 3d ed cb cc bd
       0.075622804 -0.0038528165 0.06518405 -0.09999833
000080 c0 9f ab 3c 5b fa b6 bc 80 72 ac 3d 4d 94 31 bd
       0.020950198 -0.022336176 0.08420277 -0.04335432
000090 f7 bf a1 3d 06 f0 76 bb 92 88 f6 bb d8 07 e0 3d
       0.078979425 -0.0037679686 -0.0075236047 0.10938996
0000a0 79 c5 b0 3d a8 2e 95 bd 44 0d 18 bc 94 c5 d9 3d
       0.08631415 -0.072842896 -0.0092805065 0.10633388
0000b0 95 e7 5f bd d0 e2 78 bd 00 42 85 bc 77 6c 9e 3d
       -0.054664213 -0.06076318 -0.016266823 0.07735532
0000c0 14 0b 37 bd 3d ce ad bd 31 2e dc bb 7f af a8 3d
       -0.0446883 -0.084866025 -0.0067193736 0.08236598
0000d0 20 00 f3 bb 6d 8d aa bc 1a 81 54 bd 30 0b 9c bd
       -0.0074157864 -0.02081939 -0.051880933 -0.07619321
0000e0 e1 aa c2 3d 44 4a 81 bb 58 05 5b bd f6 bb 54 3d
       0.09505249 -0.0039456207 -0.053471893 0.051937066
0000f0 f2 23 cf bd 0e e1 86 bb 5c 1b 1a 3c 48 54 99 bb
       -0.10114278 -0.004116184 0.009405937 -0.0046792366
000100 c2 34 db 3d c1 04 1a bd 52 02 aa bd 6a 6f c5 3d
       0.10703422 -0.03760219 -0.08301224 0.09640391
000110 67 38 b9 3d 94 c0 c8 bd 68 a6 cb 3d f4 3c 40 3d
       0.09043961 -0.09802356 0.09943849 0.04693313
000120 ed ff 06 3c c3 a9 bf 3c d5 48 a1 3d e1 fc 4e bd
       0.008239728 0.023396378 0.0787522 -0.050534133
000130 22 e7 a6 bd 5e fb e4 3d 56 56 01 3d 20 89 ce bc
       -0.08149554 0.11180757 0.031576477 -0.02521187
000140 11 f6 05 bc 03 fa f1 bd 5c 9a df 3c 6b 74 de bd
       -0.008176343 -0.11815264 0.027295284 -0.10862049
000150 14 b1 0a be ba b8 0d 3d 8c 96 8f bd b5 80 a3 bd
       -0.13544112 0.034599997 -0.070111364 -0.07983533
000160 bf 43 9b bd 9b 84 10 be 86 8e e0 bc d5 d4 cd bd
       -0.07581281 -0.14113085 -0.02741171 -0.1005036
000170 cd 66 33 3d 44 de 9a 3d f2 fd 98 bc ea 1c b4 bd
       0.04379921 0.07561925 -0.018675778 -0.087945774
000180 d7 4c d6 bc 52 78 38 3d 31 ec 16 be 0e 51 56 bd
       -0.026159687 0.04503662 -0.14738537 -0.052323394
000190 f1 7e b4 3d 88 dc 88 bc 88 56 2f 3d 8b 6b e7 3d
       0.08813275 -0.01670672 0.042807132 0.11299809
0001a0 dd 2a 38 3d ca b1 dc bd 29 7d ed bc 29 0f e6 3d
       0.044962753 -0.10776098 -0.028990345 0.1123336
0001b0 ca e2 c0 bd c3 39 bb 3d f7 ff 15 bd 24 ba 83 bd
       -0.094182566 0.091418765 -0.03662106 -0.06431988
0001c0 db d6 c7 3c b4 63 b7 bd 9c 84 1e bd 71 6d d4 bd
       0.024394443 -0.08954564 -0.038700685 -0.10372437
0001d0 95 72 c3 bd 29 ae 84 3d cf 66 e3 bd 6c 15 94 3d
       -0.09543339 0.06478531 -0.111035936 0.072306484
0001e0 5b 51 b0 bd 6f f3 bf bd fa 02 95 bd a0 86 da 3b
       -0.08609267 -0.09372603 -0.07275958 0.0066688806
0001f0 74 14 e0 bd 3a 87 08 3d c7 45 d3 bb d5 f7 f8 bc
       -0.10941401 0.033332087 -0.006447527 -0.030391613
000200 d0 89 14 bc 5a b1 84 3d ff 4d 1c 3e 2a 39 13 3a
       -0.00906606 0.064791396 0.15264128 0.0005616123
000210 96 74 28 3e 23 ff 14 bd bd 49 86 3d cf 62 87 bc
       0.16450724 -0.03637613 0.06557033 -0.016526608
000220 a6 ac 50 bd 8b ea 2d 3d 0c 48 fb 3c 8a e7 03 3e
       -0.0509459 0.042460006 0.030674003 0.12881294
000230 09 ef 06 3e 9c 81 1e bd a0 19 aa 3d 88 0c 7c bc
       0.13177122 -0.038697824 0.08305669 -0.015383847
000240 21 51 b5 3d b5 8a b7 3d 3c 5a 60 bd d3 e4 81 3c
       0.08853365 0.08962003 -0.054773554 0.015856182
000250 b0 50 60 bc 2e e4 f3 3d c4 be ff 3d 64 96 0e 3b
       -0.013691112 0.11908756 0.124875575 0.002175712
000260 a7 44 dd 3d 50 a3 82 3b be 75 69 3d a7 3d 83 bc
       0.1080411 0.0039867535 0.056997053 -0.016020609
000270 6a 4c 14 3e 0e 77 fb 3d cf 6c 90 3d 19 2f 1c bd
       0.14482275 0.12278567 0.070520036 -0.038130853
000280 a5 05 4d 3b a9 7f 00 bd 03 a3 0a 3e 6b 5c 10 3e
       0.0031283882 -0.031371746 0.13538747 0.14097755
000290 89 af ff 3c ff 0a 53 bd f7 68 8d 3d 29 37 52 3c
       0.031211631 -0.05152416 0.06904786 0.012830534
0002a0 d8 54 87 3d 15 63 5e 3d 48 e8 53 3c 01 c9 0f bd
       0.066079795 0.05429371 0.012933798 -0.0351038
0002b0 1a da f6 3d 83 0a 20 3c fb f0 33 bd 91 c3 ad bd
       0.12053318 0.009768131 -0.04393099 -0.08484567
0002c0 87 72 d3 3c b2 de b2 bd 49 cd 06 3d 2f 5b 05 be
       0.025811447 -0.08733882 0.03291062 -0.13023065
0002d0 c8 3f de bd 1f ee 19 be 7a 90 c5 bd 8d 9c 43 3b
       -0.10852009 -0.15032242 -0.09646697 0.002984795
0002e0 23 07 fd bd bb 7b 0f 3d c2 5e ae bc 56 f4 83 bd
       -0.12354877 0.035030108 -0.021285418 -0.06443088
0002f0 9a 79 e5 bd 48 78 44 3d c8 5e 5d 3c 96 70 84 bd
       -0.11204834 0.04796627 0.013511367 -0.064667866
000300 d5 8c 93 bd 4e 6e da bd 7b 8e 81 bd 00 34 6c bd
       -0.07204596 -0.1066557 -0.06326004 -0.05766678
000310 b1 c2 0a be a2 ad 0f bd 38 5d 6b 3d 6d 54 a2 bd
       -0.13550831 -0.0350777 0.057461947 -0.07926259
000320 b3 79 70 bd 71 89 b8 3d b9 e3 ab bc b5 e0 63 3c
       -0.05870981 0.0901059 -0.02098261 0.013908555
000330 03 31 1e 3d fd 52 7d 3d a1 23 60 3c ea e2 28 3c
       0.03862096 0.061846722 0.01368037 0.010308007
000340 95 12 c1 3d 0f f0 3c bd 0a b7 b5 bd 8b 82 b9 3d
       0.09427372 -0.046127375 -0.088728026 0.09058102
000350 0b 89 ca bd d9 19 86 bd 28 f0 10 bd c9 ca 13 3d
       -0.0988942 -0.06547899 -0.03538528 0.036082063
000360 d8 28 a4 3d 55 33 4a 3d 1a a9 44 3d 2e 79 5f 3d
       0.08015603 0.04936536 0.04801283 0.054558925
000370 5b 64 a8 3d 2f 7c 77 3c a7 43 47 bd 02 88 9c 3c
       0.08222266 0.015105291 -0.048648503 0.019107822
000380 e6 76 a1 3d 4a a7 ed bc cc 56 82 3d 1e 73 8a bc
       0.07884006 -0.029010434 0.063642114 -0.016900595
000390 df 7b b0 bc ca c0 e2 bd c2 85 bf 3d 1e 3f fb 3d
       -0.021543441 -0.11071928 0.09351684 0.12267898
0003a0 47 75 aa 3d f5 17 a1 bc fd 25 db bc 19 eb 13 bd
       0.0832315 -0.019664744 -0.026751513 -0.03611288
0003b0 26 36 be 3d ed 4b a8 3d 9b ac 80 bd e6 08 4d bd
       0.09287672 0.08217607 -0.06282922 -0.050057314
0003c0 01 bc cb 3d 1c 85 a0 3d 43 90 1e 3c 9a 86 f1 3b
       0.09947968 0.078378886 0.009677949 0.007370782
0003d0 98 8c 06 be 4b 11 99 3d 7d dd 44 bd cc ca cf 3d
       -0.1313957 0.074740015 -0.04806279 0.10146102
0003e0 52 7c bc bd 1c f3 f6 3c 30 d4 b5 3d 58 e4 0c 3d
       -0.092034 0.03014522 0.08878362 0.034397453
0003f0 e0 4c c8 bb d2 c7 f3 bd c4 cb a9 3d b4 ee 8b 3c
       -0.00611268 -0.11903347 0.08290818 0.017081596

conv2.bias f4 [16]
000000 5c 92 3d bd c8 97 c2 bc ef 23 6d 3c 15 fe a3 3d
       -0.046282157 -0.023754016 0.014473899 0.08007447
000010 f9 7c 9e bd 93 11 76 3d 3b 6f 21 3d c0 33 e5 3d
       -0.077386804 0.060075354 0.03941272 0.11191511
000020 f6 29 cb 3b c7 38 34 3d f4 ee 1e bd c9 a1 36 bc
       0.0062000705 0.04399946 -0.038802102 -0.011146971
000030 11 ea 8f 3d 72 3c 3a bd de 8b 32 3d c2 ce 1b 3d
       0.070270665 -0.0454678 0.04359042 0.038038976

conv2.weight f4 [16, 6, 5, 5]
000000 dd 27 2b bd b3 b2 98 3d 63 a8 d6 bc 6f d4 a8 3c
       -0.041786063 0.07455959 -0.02620334 0.020609109
000010 35 07 47 3d f0 8e 85 3c 0a 09 a9 3c a2 b5 9f bd
       0.048590858 0.01630351 0.020634193 -0.077983156
000020 c6 36 05 3d 8a cf 7a bd c7 b7 67 bc dc a1 9a bc
       0.03252294 -0.06123308 -0.014142937 -0.018876009
000030 bb 4f 32 3d fc 63 a8 bd a6 76 bc bb bf 8e 94 3c
       0.04353307 -0.082221955 -0.0057514487 0.018134473
000040 b4 a3 0b 3b b1 b3 05 3b 94 88 8f bd f9 3d 82 3b
       0.0021307291 0.0020401294 -0.07008472 0.003974673
000050 cf 84 9d bd c8 26 86 bd f5 7d 38 bc b7 27 71 3d
       -0.07691347 -0.06550366 -0.011260499 0.058875766
000060 d6 6d 93 bd a4 e7 87 3d 8a 34 80 bc dd d7 a3 bd
       -0.07198684 0.06635979 -0.015650053 -0.08000157
000070 8f c1 94 bd 8a 5f 0c bd 39 89 61 3d e6 f1 8b 3c
       -0.07263481 -0.0342708 0.055062506 0.01708312
000080 52 45 89 3d 3a 2d 0b 3d f5 82 b1 bc 56 5c 1a 3c
       0.06702675 0.03397868 -0.02166889 0.009421429
000090 ca 5f 22 3d 1f 33 33 bd f5 89 8f bc 70 18 d2 3b
       0.039642133 -0.043749925 -0.017521838 0.0064116046
0000a0 44 4e f8 bb 2f 3f 33 bd 0e e8 87 bd d6 c7 86 bb
       -0.0075776894 -0.04376143 -0.06636058 -0.004113178
0000b0 d3 c2 49 3d 30 f5 81 bd b8 e8 b8 3b 36 f5 39 3d
       0.049258064 -0.06345594 0.0056429766 0.045399867
0000c0 a7 63 87 bd dd 86 be bc 3e 1d 10 bd 6b 0e 37 3d
       -0.06610804 -0.023257667 -0.035184138 0.044691484
0000d0 ae 78 4a bd 87 af 27 3d 6e 66 2e bc 3f 12 93 3b
       -0.049431495 0.04093888 -0.010644538 0.004488259
0000e0 0f b9 91 3d 9e c3 6b 3b cc 4c a0 3c 27 70 39 bd
       0.07115375 0.0035974751 0.01956787 -0.045272972
0000f0 8e 67 fd 3c 5a fa 91 bb c6 02 2d 3d c8 89 79 3d
       0.030933168 -0.004454893 0.042238973 0.060922414
000100 d5 d0 21 3c b9 0a 25 bd 37 26 4d 3d 86 ca 6a bd
       0.00987645 -0.04029343 0.050085273 -0.057322048
000110 4e b4 74 bd 99 16 09 bc a9 fc 7e 3d 19 7f 0d 3d
       -0.059742264 -0.008367204 0.062252674 0.034545038
000120 e7 b1 84 3c ba b5 1f 3d 2d d8 88 bd 74 29 86 bc
       0.016198112 0.038991667 -0.06681857 -0.016377188
000130 92 54 0e 3c 6c 6f 53 bd f3 43 5c 3d b3 e8 47 bd
       0.008687155 -0.051619932 0.05377574 -0.048805904
000140 d1 03 b5 bc 5b 72 15 bd 8a 2a 91 bd 38 37 dd 3c
       -0.022096546 -0.03648601 -0.07088192 0.02700387
000150 cc 39 07 bb c9 b0 33 3d 1a 29 84 ba be 34 9b bd
       -0.0020633815 0.043869767 -0.001008305 -0.07578419
000160 34 77 05 bc 6c a1 a6 bd 76 6f 63 3d 95 58 77 bd
       -0.008146096 -0.081362575 0.05552622 -0.060387213
000170 27 f9 a7 bd ae b1 85 3d f0 42 de 3c 9e 70 20 3d
       -0.08201819 0.0652803 0.027131528 0.0391699
000180 4d 1b 82 3d 05 b5 40 3a ef bd 2c bd 55 77 88 bd
       0.063528635 0.0007351193 -0.042173322 -0.06663386
000190 34 15 5e 3c 5c e3 89 3d c3 36 94 3d 6b 91 92 3d
       0.01355486 0.067328185 0.072370075 0.071566425
0001a0 f2 eb 2b bc fa ef 05 bd 59 7d 26 3c 66 44 b8 3b
       -0.010493265 -0.032699563 0.010161721 0.005623388
0001b0 83 be 98 3d c9 58 72 3c 8e e9 39 3c 22 71 b7 3c
       0.07458212 0.014791676 0.011347188 0.022392813
0001c0 3b fa 48 3c f8 39 80 bd 73 c1 9b bd 4f 9a 81 bd
       0.012266691 -0.06261057 -0.07605257 -0.0632826
0001d0 ba 27 60 bd dc 10 fa 3c c0 e5 81 bd cf f9 80 bc
       -0.054725386 0.030525617 -0.063426495 -0.015744118
0001e0 b2 52 18 3d fa 78 ac bc 7b ce e6 3c 3f 38 99 bd
       0.03718824 -0.02105378 0.02817463 -0.07481431
0001f0 e5 9e 90 3d fc dd 60 bd 3c 79 b2 3d 98 10 92 3d
       0.07061557 -0.0548992 0.0871453 0.07132071
000200 da 73 61 bd 89 2f 8f 3c 7f 90 b0 3d 06 66 a2 3d
       -0.055042125 0.017478721 0.086213104 0.07929616
000210 81 01 b2 3c 13 d5 10 bd ae 8c 97 3d cb 34 16 3d
       0.021729233 -0.035359453 0.073998794 0.03667144
000220 cd 4f 03 bd ca c4 06 3d 92 65 29 3b 9b 36 67 bd
       -0.032058526 0.032902516 0.0025847894 -0.05644856
000230 e1 7a 8d 3d 86 0b 52 3c 34 9c c9 bc 79 0c 29 3c
       0.06908203 0.01282013 -0.024610616 0.010317915
000240 90 63 93 bc 5a 18 66 3c c4 f2 b4 3d 84 c2 cb 3c
       -0.017991811 0.014043892 0.08835366 0.024873026
000250 46 bb 2c 3d 17 be 8e bc 06 1c 29 bc ab d8 4b bc
       0.042170785 -0.017424626 -0.010321623 -0.012441794
000260 4a ac 12 bd f3 6d 54 bb 18 46 8d 3d ac 25 63 bd
       -0.03580884 -0.0032414168 0.06898135 -0.05545585
000270 77 ff 79 3d 43 56 d8 3c d7 60 95 3c 4b 04 f0 bc
       0.061034646 0.02640832 0.018234653 -0.029298922
000280 49 27 1f bd 05 dd 1d bd 89 90 72 bd e0 e1 84 3d
       -0.038855825 -0.03854086 -0.05921987 0.06488395
000290 d7 3c cc 3c cd c7 5e bd be e4 e3 3c 57 fd 83 3d
       0.024931354 -0.054389764 0.027819034 0.06444805
0002a0 9f 35 a7 3d 36 5c bf 3b 30 43 13 3c 09 9e f2 bc
       0.08164524 0.00583985 0.008988187 -0.029616373
0002b0 23 40 94 bc b3 12 d3 3c 06 77 5e 3c 49 a9 4b 3c
       -0.018096989 0.025765752 0.013578182 0.012430497
0002c0 aa 1b 59 3b 29 99 8b 3d c3 a7 05 bc 54 7e a8 3d
       0.0033128061 0.06816322 -0.008157673 0.0822722
0002d0 36 a1 9c 3d be db 24 bc 5e 59 ba 3b 74 8e 5d 3c
       0.07647936 -0.010062156 0.005686923 0.013522733
0002e0 b9 1f 0b 3c 9c 85 82 bd 2a 1b 04 3c d0 3b 87 bc
       0.00849145 -0.0637314 0.008063117 -0.016508013
0002f0 30 3e d3 bc 73 f6 8d bb dd a4 5f 3d 55 d0 f9 3c
       -0.02578649 -0.0043323576 0.054600585 0.030494848
000300 9a c1 45 3d 05 0c 88 3d b5 53 72 bd 98 f8 89 3d
       0.048280336 0.066429175 -0.05916186 0.067368686
000310 fb d7 13 3b 8f ad 86 bd cc c8 98 bc 68 dc 07 3d
       0.0022559154 -0.065760724 -0.018650435 0.03316918
000320 b4 1c a6 3d 67 9b 24 3c 04 8d 4a bd 0e 7e 5a 3d
       0.081109434 0.010046816 -0.04945089 0.05334287
000330 62 0c 4e 3d f0 dd 60 ba 0a e9 f8 3c f0 50 42 bc
       0.050304778 -0.0008577993 0.03038456 -0.011860117
000340 20 bd 84 bc 1a 24 21 3d 39 b9 c1 3d e9 15 63 3d
       -0.016203463 0.03934107 0.094591565 0.055440817
000350 28 fd 96 3d 11 b9 67 bd 41 19 8c 3c 11 30 67 bd
       0.073725045 -0.056572977 0.017101886 -0.056442324
000360 5d e5 6a 3d c5 ca 67 bd 0e 6d a2 3d 72 0b d5 3c
       0.057347644 -0.05658986 0.07930957 0.026006434
000370 51 92 d5 bb 90 bc 54 bd ea 59 43 bc 6e b8 69 bd
       -0.0065176864 -0.05193764 -0.011923293 -0.05706065
000380 d6 e5 35 3d 18 5a 73 bd 1c 98 e3 3b 14 5f a6 3d
       0.04440864 -0.059412092 0.006945623 0.081236035
000390 c3 01 14 bd 65 82 48 3d 7f cb 1e 3d 2b 79 65 bd
       -0.036134493 0.04895248 0.038768288 -0.056023758
0003a0 a9 06 94 bc 44 d2 3e bd 0f 72 56 3d 3f 09 19 ba
       -0.018069582 -0.046587244 0.05235487 -0.00058378646
0003b0 db ac 52 3d 32 29 80 3d e6 77 32 bd d5 94 83 3d
       0.05143438 0.062578574 -0.043571375 0.06424872
0003c0 a7 db 49 3d 85 f9 90 bd 25 38 98 3d 96 92 47 3d
       0.049281742 -0.07078842 0.07432584 0.04872378
0003d0 b5 46 ea bb e3 8e a7 3d 5b b8 44 bd 7a 41 8c bd
       -0.007149542 0.0818155 -0.048027378 -0.06848426
0003e0 85 c4 11 3d c5 b0 36 bd ae 6a 94 3d 87 71 86 bd
       0.035587806 -0.044602174 0.0724691 -0.06564622
0003f0 03 ef 02 bd e6 ab 11 3d 0a bf d3 bc 71 f9 53 bc
       -0.03196622 0.035564326 -0.02584793 -0.012937889

fc1.bias f4 [120]
000000 eb bf 2c 3d c1 6e df 3c 4e eb 83 3c 5b 75 ff bc
       0.042175215 0.027274491 0.016103413 -0.03118389
000010 28 08 cc bc 02 62 1c 3d c6 24 16 3d f0 e5 dc 3c
       -0.024906233 0.038179405 0.036656164 0.026965111
000020 fd 18 94 bc 76 89 1c 3d 94 5f 27 bd 07 bf c0 bb
       -0.018078322 0.03821703 -0.040862635 -0.0058821472
000030 5b 00 85 bc 4f fe 04 bd f2 0f 57 bc 36 da 0d bd
       -0.016235521 -0.03246909 -0.01312636 -0.03463193
000040 4c a8 8b bb ad ed 44 3d 62 49 16 3d ca 9f 12 3a
       -0.004262006 0.048078228 0.036691077 0.00055932684
000050 02 90 af bc 6a 35 44 3d d3 1c ed bc 99 dd 9f 3b
       -0.021430973 0.047902502 -0.028944409 0.0048787114
000060 08 95 3d 3d d9 d0 3f bd da a8 43 bc 4a 9c bf bc
       0.046284705 -0.046830032 -0.011942113 -0.023389954
000070 10 eb e3 bc 6b e3 43 bd ee 22 9a 3c e4 93 09 bd
       -0.027822047 -0.047824305 0.018815484 -0.033588305
000080 9d a1 64 bd e7 00 67 bb 35 db 01 bc 5e fd a1 3c
       -0.05581819 -0.003524834 -0.007925798 0.019774135
000090 67 7b 01 3c a7 a6 c3 bc e6 4b a6 bc 40 06 11 3d
       0.007902957 -0.023883177 -0.020299863 0.03540635
0000a0 ef bb e1 3a 41 66 a3 3c 55 e5 3f bd a9 f8 30 3b
       0.0017222146 0.01994622 -0.046849567 0.0027003682
0000b0 a2 d9 a6 3c 67 24 b4 bb 17 69 8e 3d 83 66 16 3d
       0.020367447 -0.0054975036 0.06953638 0.036718857
0000c0 12 8e 38 bd 9d bf 3a 3d c2 aa 07 bd 11 a5 03 3d
       -0.045057364 0.045592893 -0.03312183 0.03213984
0000d0 d2 ef 02 3b 96 ab 57 3d 05 d5 c5 bc b0 eb fe bc
       0.001997937 0.05265387 -0.024149427 -0.031118244
0000e0 27 28 01 3b 7f 0b 8d bc a8 ac 49 bd 10 e6 97 bc
       0.001970777 -0.017217396 -0.049236923 -0.01854232
0000f0 95 d7 83 bc d6 57 c1 bc b9 b6 0d 3d a3 7a 5f 3c
       -0.016094008 -0.023601454 0.034598086 0.013640079
000100 de 16 8e bc 67 04 4e bc 43 5a 0a bd 62 c4 0f 3d
       -0.017344888 -0.012574292 -0.033777487 0.035099395
000110 fd 90 54 3d 02 78 54 bc 5c ae c7 3c ce 2c 5e 3c
       0.051896084 -0.012968065 0.024375133 0.013560487
000120 98 de 96 3c 95 c8 28 bd f2 c5 81 3c 7f d0 f6 3a
       0.018416688 -0.041206915 0.015841458 0.0018830447
000130 b7 d2 04 3c 4b f3 12 3d 15 36 04 3d 26 ee db bc
       0.008106879 0.035876554 0.03227814 -0.026846956
000140 04 ca c6 bc d4 fd 9d 3b bb 78 a5 ba 2c 00 56 3d
       -0.02426625 0.0048215184 -0.0012624481 0.052246258
000150 c5 3e 87 3c e4 e3 15 3d b8 cf 52 bd 59 a0 3f ba
       0.016509423 0.036594287 -0.051467627 -0.00073099654
000160 4a 9a 38 bd c1 a2 0a 3d a9 24 1e bd cf 36 28 bd
       -0.045069017 0.03384662 -0.03860918 -0.041067895
000170 8a 04 9c 3c bd 3b 99 3c 0d a4 20 bd 2b a0 1d bd
       0.019045133 0.018705243 -0.03921895 -0.038482826
000180 06 be d9 bc 1b 83 ba bc c4 ae 18 3d 03 2d c4 3c
       -0.026579868 -0.022767594 0.037276044 0.023947245
000190 6a e9 42 bc e9 3b 86 3d 2c 02 95 bc 6e e6 b6 bc
       -0.011896471 0.06554396 -0.018189512 -0.022326674
0001a0 ce 9f 17 3d 34 6a b4 bc 9d 77 ed 3c 29 d0 44 bd
       0.037017636 -0.022023298 0.0289877 -0.04805008
0001b0 d2 8f 19 bd d3 22 c3 3c 7a 65 fc 3b 67 57 40 3d
       -0.037490673 0.023820316 0.0077025266 0.046958353
0001c0 6e 64 71 bc 7a 06 2c 3d ad 74 30 3d fc b9 f4 bc
       -0.014733417 0.041998364 0.04308002 -0.02987384
0001d0 f4 6b 20 3c fd 3d 6d 3c 92 8c 8e 3c 8b 2b 67 3c
       0.009791363 0.014480111 0.017401014 0.014109503

fc1.weight f4 [120, 400]
000000 3c 0a 04 bc 33 ce 6a 3c 10 1f 13 3d 5f 8f a3 3c
       -0.008059081 0.014331388 0.035918295 0.019965826
000010 a8 8b a9 3c 96 e9 32 3d ce ee cf 3c 19 98 45 3c
       0.020696476 0.043679796 0.025382426 0.012060189
000020 15 97 8d 3c b2 f8 02 3d 7a 7d cd bc 37 b3 aa bc
       0.017283956 0.031975456 -0.025084246 -0.02083741
000030 1c 3e c3 3b 85 f1 28 3d 1d 94 dd bc 97 a0 7c 3c
       0.0059583317 0.041245956 -0.027048165 0.015419147
000040 1b dc 23 bd 78 41 e3 bb 67 4c 39 3d 09 e9 8c 3c
       -0.04000483 -0.0069352947 0.04523888 0.017200964
000050 4a 0b 69 bc 94 64 3a bd 67 5a c2 3c 08 f5 e1 bc
       -0.014223883 -0.045506075 0.023724748 -0.02758266
000060 0f 24 05 3c 45 01 b8 bc 90 64 f5 bc 52 6d 92 3c
       0.008126273 -0.022461543 -0.029955178 0.017874394
000070 de 48 30 3d 89 c5 80 3b 69 9a 63 3d 14 45 03 3d
       0.04303824 0.003929798 0.05556718 0.0320483
000080 0b 36 35 3d 86 6b 12 3c 23 ab 18 bc 8a 9d f3 3c
       0.044240993 0.008936768 -0.009318146 0.029738206
000090 15 0e e1 3c d6 7f 11 3d 46 3e 39 3c 22 be 19 3d
       0.027472535 0.035522304 0.011306351 0.03753484
0000a0 bd 6d 3c bc 25 7c 4c 3d 1e 58 27 bd ab 2d cd bc
       -0.011500773 0.04992308 -0.04085552 -0.02504619
0000b0 db 0a 11 bd 9c 8c 45 3d a6 21 e6 3b e6 1d 2f 3c
       -0.035410743 0.0482298 0.007023054 0.010688281
0000c0 d2 87 04 bd 0a 59 db bc 52 4e 4b 3d 9a 14 54 3b
       -0.03235609 -0.026775856 0.04963524 0.0032360912
0000d0 37 de a1 bb 58 fe 42 3d d9 c3 92 3b db 81 1f 3c
       -0.00493982 0.047605842 0.0044789133 0.00973555
0000e0 9a 23 ba bb 26 59 48 bc 4c 9c 0b 3d c2 5b 1c 3c
       -0.0056805136 -0.012228286 0.034084603 0.009543361
0000f0 fa 2d 93 3b 29 0c 70 3c 02 f3 b5 bc 72 08 04 bd
       0.004491565 0.014651337 -0.022210602 -0.032234617
000100 87 3e a5 3c af b0 af 3c 92 fb 94 bc 08 ad ce bc
       0.020171417 0.021446554 -0.018186364 -0.025228992
000110 98 e3 2b 3d ae 18 1a bd 63 e2 1f 3d e9 a7 38 3c
       0.041965097 -0.037621193 0.03903426 0.011270502
000120 dd 98 b3 3c 86 bb 4c 3b 76 06 58 bc 7c ae aa bc
       0.021923477 0.0031239702 -0.013185134 -0.020835154
000130 29 68 75 bc 62 13 cc bc 55 e4 58 3d ce 15 a5 3c
       -0.014978447 -0.024911586 0.05295213 0.020151999
000140 af f5 a9 bc 38 39 c8 bc d3 6e a6 bc 5b 0b 97 bc
       -0.020747034 -0.024441347 -0.020316517 -0.018438032
000150 b5 d1 28 3d ed 01 e8 3c 99 2f c5 bc f9 2f 59 3d
       0.041215617 0.02832123 -0.024070548 0.053024266
000160 75 a8 04 3c 67 a4 05 3d 4f 74 c3 3c a3 a5 f7 bc
       0.008096804 0.03262749 0.023859171 -0.030230349
000170 e8 fc 4f 3d b7 65 18 bd 5c 42 c3 3c 30 1d 19 3c
       0.0507783 -0.037206378 0.023835354 0.009345338
000180 2c c4 1f bd ec 45 9e 3c 09 de 8e bc da 0d 14 3c
       -0.039005443 0.01932045 -0.017439859 0.009036506
000190 21 ca 1c 3c 7b 20 d1 bc 8e 53 8d 3c 1d 4b c6 bc
       0.009569676 -0.025528183 0.017251756 -0.024205739
0001a0 fb f3 25 3d 3d 7c ce bc d4 c6 1f 3d c3 4e fd 3c
       0.04051588 -0.025205726 0.039007977 0.030921346
0001b0 90 14 ed 3b ee ad 61 bc e4 87 06 bc c4 f1 1c bc
       0.0072351173 -0.013774378 -0.00821111 -0.009579126
0001c0 d9 26 f0 ba e0 20 2e ba 43 7a 3d 3d 6c f8 0b bd
       -0.0018322124 -0.0006642472 0.046259176 -0.03417246
0001d0 17 50 46 bc ea 63 13 bc 7e 48 a0 3c 3f 5c 17 3d
       -0.012104056 -0.008995989 0.019565817 0.036953207
0001e0 5b 52 39 bd 37 72 3a 3d 07 b6 a8 3c a1 90 2d 3d
       -0.045244556 0.04551908 0.02059461 0.042374257
0001f0 b0 50 02 bb 3d 5c e1 3c a2 ba 7e 3c 28 da 83 3c
       -0.001988452 0.027509803 0.015547426 0.016095236
000200 a1 ab d4 bc 9c a5 31 bd e8 bb d6 bc e1 76 15 bd
       -0.025960745 -0.043370828 -0.026212648 -0.036490325
000210 bb 8d 25 3d 86 0d 18 bd 1a 05 47 bb 8d a8 45 3d
       0.040418368 -0.037122272 -0.003036803 0.048256446
000220 61 cd e0 bc af d7 34 3d a8 34 02 bc e5 8e 45 bd
       -0.027441682 0.044151004 -0.007947125 -0.048231978
000230 db cb 2f bd 1e f8 12 3d 14 fb 4a bc 13 d5 1f bd
       -0.04291902 0.035881154 -0.012388963 -0.039021563
000240 51 7f 36 bb 2a 02 00 bd 6c cb d3 3c b7 7c 05 bd
       -0.0027846883 -0.031252064 0.025853835 -0.03258964
000250 8c 48 20 bd af 5b 19 bc 9d 86 ba 3c 57 a0 a1 bb
       -0.039131686 -0.009360238 0.022769267 -0.004932444
000260 9b 0a 27 3d 4d d3 40 3d 0d a9 17 bc 73 b3 43 bd
       0.0407816 0.047076512 -0.009256613 -0.047778558
000270 7f b5 06 3d 11 0c de bc 0f 02 7b 3b a7 29 40 3d
       0.032887932 -0.027105363 0.0038300788 0.046914723
000280 e6 dd d5 b8 84 2f 48 bc 5c 1e 59 3b 91 a9 e3 bc
       -0.00010197963 -0.01221836 0.0033129668 -0.027790817
000290 cf a1 d4 bc f9 87 b9 bc ec c2 e1 3c 75 ef 35 3d
       -0.025956063 -0.022647845 0.027558766 0.044417817
0002a0 8e bb b2 bb 86 fc 17 bd be 1c eb 3b 4f ea 44 3d
       -0.005454487 -0.03710606 0.007175057 0.048075017
0002b0 57 d7 b2 bc b6 1e 8a 3c 74 65 11 bd 01 d1 47 3c
       -0.021831198 0.016860347 -0.035497144 0.0121958265
0002c0 e7 d2 2d bc f2 2b 0a 3d c8 0e 32 3d 2b 63 3e bd
       -0.010609365 0.033733316 0.043471128 -0.046481293
0002d0 80 a5 2b 3d 0a 62 f0 bb b5 9c 35 bd e2 35 1f b9
       0.04190588 -0.007335906 -0.0443389 -0.00015183495
0002e0 30 d3 dc 3c 5b d4 da bb d8 8c fe bc 19 52 19 bd
       0.02695617 -0.006678147 -0.031073019 -0.03743181
0002f0 8c cd f2 bc d5 24 72 3c 1b 35 ab bb 17 cb 00 bd
       -0.029639028 0.014779289 -0.0052248365 -0.03144368
000300 80 b2 94 bc 6f 73 c6 bc f4 84 4d 3c 3f 03 a6 39
       -0.018151522 -0.024224965 0.0125439055 0.00031664406
000310 f1 5d 08 bd 3f 1a b9 3c bd 26 06 3c ab ef 81 bc
       -0.033292715 0.022595523 0.008187947 -0.015861353
000320 58 d4 e3 3b 30 fd 3a 3d 1c ee 0d bd db 68 3a bd
       0.0069528036 0.045651615 -0.034650907 -0.045510154
000330 54 a4 cd bc b7 e1 2b 3d 38 01 7b 3c 00 e9 cb 3c
       -0.025102772 0.041963305 0.015320115 0.024891376
000340 ba 05 da 3c e5 bd 3f bd 35 14 53 bc 4f 38 08 3d
       0.026614059 -0.046811957 -0.012883236 0.033256825
000350 17 6f dd bc 39 3c 33 3d 21 67 2b bd cd 31 52 3d
       -0.02703051 0.043758605 -0.0418464 0.051317025
000360 36 75 20 3d 3e 8f 23 bc 96 4e f4 3c ad 98 61 3c
       0.03917428 -0.009982882 0.029822629 0.013769311
000370 26 59 1b bc e3 12 61 3d ba 5a 51 bc fd 10 39 3d
       -0.009481704 0.054949652 -0.012777979 0.045182217
000380 34 71 aa bc 67 6e da bb 70 04 4e bc 0d e3 47 3c
       -0.020805933 -0.006665993 -0.0125743 0.012200129
000390 1d 09 27 3d b2 16 b8 38 73 34 4a 3d 72 b9 9d bc
       0.040780175 8.778031e-05 0.049366426 -0.019253466
0003a0 28 99 5e 3c e2 49 b5 bc b3 4f ca 3c 7c 01 22 bd
       0.01358632 -0.022129957 0.024696207 -0.039552197
0003b0 b2 92 20 3c 9d 7e d2 bb ac 87 a8 bc 18 49 e4 3c
       0.0098006 -0.006423785 -0.020572506 0.027866885
0003c0 0b bf 10 bd eb 43 a4 bc 65 3a a3 bc cd 47 bd 3c
       -0.035338443 -0.020051917 -0.019925306 0.023105526
0003d0 e3 78 00 bd ee 58 09 3b c5 9a ad 3c ab c9 8b bc
       -0.031365287 0.0020957547 0.021191964 -0.017063936
0003e0 2a 65 3a 3d a9 a0 05 bc ad b5 42 bd d8 73 0d bd
       0.045506634 -0.00815598 -0.04753654 -0.034534305
0003f0 33 8f 32 bc 2f ac 2b 3c c4 59 27 bd f1 e2 d1 bc
       -0.010898399 0.0104780635 -0.04085709 -0.02562091

fc2.bias f4 [84]
000000 76 0c 86 3c ac 62 0f 3e bd e4 da bc c9 71 3e bd
       0.016363364 0.14002484 -0.026720399 -0.046495233
000010 01 52 22 3d e8 7f c8 bc 33 86 16 bd 71 da 96 bd
       0.039628986 -0.024475053 -0.036749076 -0.07365883
000020 2e f6 f5 3c b0 16 88 bd 62 13 e3 3c cd 7d 98 3d
       0.030024614 -0.06644952 0.027719203 0.074458696
000030 d2 df 84 bd 78 4d 70 bd 99 8a ac 3d 7e 59 56 3c
       -0.06488003 -0.05866763 0.08424873 0.01308286
000040 c0 39 84 bc 40 a5 8f 3c cc 6e 3b bd fc 78 12 bd
       -0.016140819 0.017534852 -0.04575996 -0.03575991
000050 a9 13 b6 3c aa 86 55 bd 57 10 db 3c 7d b9 37 3d
       0.022226172 -0.05213038 0.02674119 0.04485463
000060 10 dc 8a 3c 60 02 da bc 30 3a 0a 3c 54 01 6b 3d
       0.016950637 -0.02661246 0.008436725 0.057374313
000070 bc 75 38 3e eb 15 73 3c 25 e3 ab 3d 5f 52 18 bd
       0.18013662 0.014836769 0.08392934 -0.03718793
000080 e4 ca 22 3d 79 ad 97 bd 48 20 b7 3c 65 39 7c 3d
       0.039744273 -0.07406134 0.02235426 0.061578173
000090 15 5a dd 3b 74 2b ba bd e0 f8 8b bb b1 20 e8 3d
       0.0067551234 -0.09090319 -0.0042716116 0.113343604
0000a0 16 a4 07 bd 67 05 ac 3d 55 99 9d bd 8d 9c 2e 3c
       -0.03311547 0.08399468 -0.076952614 0.010657442
0000b0 d1 fa 8c bd 1b 03 c0 3d 6b 35 f9 3d 0d c9 bd 3d
       -0.06883777 0.09375592 0.12168392 0.09266863
0000c0 de 7a e0 bc 68 a9 b6 bd 44 ec 65 3d 50 2d 00 3d
       -0.027402338 -0.089190304 0.056133524 0.031293213
0000d0 3d 33 ad 3d 29 5d 85 bd f3 fe 84 bd 36 36 ca 3d
       0.084570386 -0.065119095 -0.0649394 0.09873621
0000e0 53 f5 f1 3c 82 64 93 bd b9 f8 b4 3d 1a 89 82 bc
       0.029535925 -0.07196905 0.088365026 -0.015934516
0000f0 45 58 a2 bd 15 33 a3 3b bc 7f 9a bd 43 ae cf bc
       -0.07926992 0.0049804547 -0.07543895 -0.02535165
000100 cb 4c da 3d 88 3a 41 bd b4 07 bf bd 2c f3 af 3d
       0.10659178 -0.04717496 -0.09327641 0.08591303
000110 40 26 b6 bd f2 11 97 3d f0 10 82 bd fd 38 44 3d
       -0.08894014 0.0737647 -0.06350887 0.04790591
000120 0c 6e 97 bd dd a0 f6 3d e5 7c 5e bd 7b 81 8c bc
       -0.07394037 0.12042401 -0.054318327 -0.017151585
000130 7d 57 e3 3c 76 51 97 bd 26 e0 87 bd 73 1f 9b bc
       0.027751679 -0.07388584 -0.0663455 -0.018935895
000140 2a a1 a7 3d e4 09 43 39 a7 fe 78 3c 39 ac 87 bd
       0.081850365 0.00018600334 0.015197433 -0.06624646

fc2.weight f4 [84, 120]
000000 73 0f 2a 3d 74 de 03 bd b8 63 83 3d 77 9a 69 3d
       0.04151864 -0.03219457 0.06415504 0.057032075
000010 2a 31 95 bc 7b df 93 bd ba 13 88 3d c9 0b 48 bd
       -0.01821192 -0.0722036 0.066443875 -0.048839364
000020 0b ce 2a bd 76 27 03 bd 1f 8d 6f 3d 3f 91 45 3d
       -0.041700404 -0.032020055 0.058484193 0.04823422
000030 1a 27 8f 3d 15 f0 94 3d 64 f9 6a bc 63 58 56 3d
       0.0698988 0.072723545 -0.014341686 0.052330386
000040 41 df 80 3d 17 66 a3 3d 71 f9 95 bd c4 70 42 b8
       0.06292582 0.079784565 -0.07322968 -4.6358226e-05
000050 00 d8 f8 3b a0 22 fb bc b5 4c 71 3d f0 0d da 3c
       0.0075941086 -0.030656159 0.058911044 0.026617974
000060 06 3f a2 3d da 69 90 3d 53 5e a7 3d 0b aa b0 bd
       0.07922177 0.070514396 0.08172288 -0.08626183
000070 ec 27 8c 3d 18 c2 3f 3d 04 49 7a 3d d0 c3 2d 3d
       0.06843552 0.04681596 0.06110479 0.04242307
000080 8f 9e b7 bd 6a 85 78 3d ec db 08 3c b5 56 d1 3c
       -0.089657895 0.06067411 0.008353215 0.02555404
000090 13 80 a5 3d c7 f2 42 bd 22 63 08 3d ea 3a a5 3c
       0.08081069 -0.04759481 0.033297665 0.020169694
0000a0 41 58 3a 3d d7 f3 68 bd 5b f4 5d bd 9b 22 86 3b
       0.04549432 -0.05687317 -0.054188114 0.0040934808
0000b0 01 61 95 bd c5 f5 59 bd c6 ae 65 bd 61 05 72 3c
       -0.07293893 -0.0532129 -0.05607488 0.01477179
0000c0 13 c0 26 3d 86 66 81 3d 35 43 bc bb 52 76 70 3c
       0.04071052 0.06318383 -0.0057453164 0.014676647
0000d0 08 17 ab bd ff e4 97 3d 37 eb 96 bd 39 87 ac 3c
       -0.08354002 0.074167244 -0.073690824 0.021060573
0000e0 6b 9b ad 3d de 88 3f bd ca 5c 0e bd ba 10 24 3d
       0.08476909 -0.046761386 -0.03475646 0.040055014
0000f0 2b a7 ba 3d 27 60 2a bd b2 d1 b8 3c eb e5 44 3c
       0.09113916 -0.041595604 0.022560928 0.012017707
000100 b3 79 a3 3c 51 1a 85 bd fa af aa 3c a2 a7 a1 3c
       0.019955492 -0.0649916 0.020835865 0.019733254
000110 4d 3a 92 bd ab 1c 5f 3d 9d 63 1c 3d 61 db 48 bd
       -0.07140026 0.0544707 0.038180936 -0.04903734
000120 d0 6b b6 bd 1e 31 5d bd 85 d0 23 bd 1e ff a2 3c
       -0.08907282 -0.05400192 -0.03999378 0.01989704
000130 e7 ce 9b 3d 3c 5b 95 bd dc c5 51 bd 67 ce 41 bd
       0.07607823 -0.07292792 -0.051214084 -0.04731598
000140 d9 20 55 bc 94 13 80 3d 11 6a 86 3c 09 40 7f 3d
       -0.01300832 0.06253734 0.016407998 0.062316928
000150 d2 e9 04 bc db 48 13 3d f8 1a b8 3c 56 4d 7f 3c
       -0.008112388 0.035958152 0.022473797 0.015582403
000160 d0 e6 a1 3d 96 70 5a bd cc 5c 80 bd a3 3c ab bd
       0.07905352 -0.053330027 -0.062676996 -0.08361175
000170 49 db 45 3c 40 7f cd bb 1b 70 6f bd be 61 ba 3a
       0.012076207 -0.006271273 -0.05845652 0.0014219803
000180 5d e6 7a 3d 37 ce 86 bd 89 1b 0d bd bf a5 e7 3c
       0.061254848 -0.06582301 -0.034450088 0.028277276
000190 ae 11 f4 bc db d8 92 bd 59 07 a6 bd c3 27 00 bd
       -0.029793587 -0.07170268 -0.0810687 -0.03128792
0001a0 fa 26 66 3c e2 9f 66 3d fe 0f 99 3d 41 31 8a bb
       0.014047379 0.05630482 0.074737534 -0.0042172973
0001b0 84 38 66 bd b0 17 d0 3c bb ae 25 bd 2c 6c a3 bd
       -0.05620624 0.02540192 -0.04044984 -0.079796165
0001c0 ce 8b 83 bc 63 3a 91 bd fc b8 f6 bc 76 3e 8d bd
       -0.016057875 -0.070912145 -0.030117504 -0.06896679
0001d0 32 36 01 bc d8 4b 3a 3c 2c 2e 59 3c 15 59 3d bd
       -0.007886456 0.011370622 0.013255637 -0.046227533
0001e0 b0 78 54 bd 45 1a 4b bd 62 cb 27 3d 1f a1 85 bd
       -0.05187291 -0.0495856 0.040965445 -0.06524872
0001f0 3e 41 92 bd 0e b5 14 bc c0 92 26 3d a8 f1 c0 3d
       -0.0714135 -0.00907637 0.040667295 0.09421092
000200 94 42 30 3d f5 12 85 3d 0e 52 4f bd 67 26 a0 bd
       0.043032244 0.064977564 -0.050615363 -0.07819825
000210 80 04 ac bd eb 9f 3e 3d 53 0e af 3d 9a 62 38 bd
       -0.08399296 0.04653923 0.08547654 -0.04501591
000220 13 79 2d bc ea 64 56 bd 8c 82 01 bd cf 9a bc 3d
       -0.010587948 -0.052342333 -0.03161864 0.09209215
000230 0f 82 94 3d d1 29 3c 3d 60 4a 9d 3d 85 75 9a bd
       0.07251369 0.045938317 0.076802015 -0.07541946
000240 fa ce 0e 3b 0c c7 74 3d bd 29 65 bd ae 40 58 3b
       0.0021790848 0.05976014 -0.055948008 0.0032997536
000250 89 3f 95 3d a0 7d 52 bb 71 5b 66 bd 68 01 37 3c
       0.07287509 -0.0032118335 -0.05623955 0.011169769
000260 aa b8 3e bd 12 47 59 bc 6b 2e 54 3c d3 9a a3 bd
       -0.046562828 -0.013261573 0.01295052 -0.07988515
000270 3e da 4b 3d bd dd 70 3d 09 04 bc 3d 3d ae 43 3d
       0.04976868 0.058805216 0.09180457 0.04777359
000280 a7 f0 aa 3c c3 44 18 3d df ab c1 3c 1c 0d 7d bc
       0.020866705 0.03717495 0.023641525 -0.01544502
000290 63 6c ba 3d 65 c5 28 bd 89 72 b4 3d 79 33 c2 3d
       0.091027044 -0.041203875 0.08810908 0.09482474
0002a0 9c 00 d3 bc 4f d9 36 3d 84 8d 3c 3d 8c 9a a3 bd
       -0.025757127 0.044640835 0.046033397 -0.07988462
0002b0 2b b5 12 bd ee b7 18 3b 15 4d a7 3d 2a 6d 6c 3d
       -0.035817306 0.002330299 0.08168999 0.057721294
0002c0 c0 9d 60 3a ab ec 84 bd 65 29 93 bd 95 82 37 bd
       0.00085684285 -0.06490453 -0.0718563 -0.044802267
0002d0 8d e2 98 bd f7 af e1 bc 2d 78 fc bc 1a 82 43 bd
       -0.07465086 -0.027549727 -0.030819023 -0.047731496
0002e0 da 3c d0 bc e7 bf 43 bd d4 95 8a bd 73 3d 84 bd
       -0.025419641 -0.047790434 -0.06766859 -0.06457033
0002f0 86 07 9f 3d d8 bb 25 bd 01 85 37 3d 92 db f5 bc
       0.07765107 -0.040462345 0.044804577 -0.030011926
000300 58 e6 91 bd 07 81 6d bd 57 5f 25 3d a7 22 7e bd
       -0.07124013 -0.05798438 0.040374126 -0.062044766
000310 08 ac 36 3c d7 ee 88 bd 21 f6 22 3d bb f5 47 3d
       0.011149414 -0.0668618 0.039785508 0.04881833
000320 ec e1 3a bd fe c8 b0 bd e9 3b b1 3d f3 f6 a9 bc
       -0.045625612 -0.08632086 0.08654005 -0.020747637
000330 92 5f 86 3c d4 4e 8f 3d 62 07 81 bd da 3e 9a 3d
       0.016402993 0.06997457 -0.06300236 0.07531519
000340 e6 93 21 bd 49 da 2a 3b bd 89 ba bd 07 83 85 3b
       -0.039447688 0.002607005 -0.09108303 0.0040744576
000350 37 90 5d bd 81 78 a9 bd 2b 05 15 3c f3 16 71 bd
       -0.054092612 -0.082749374 0.00909547 -0.058859777
000360 f7 64 b7 bc 05 ce bd bd 18 ef 46 3d 38 69 dc 3c
       -0.022387011 -0.09267811 0.04856786 0.026905641
000370 5f cb 76 bd 1b e1 6b 3d e0 9c 46 bd e3 22 6a bb
       -0.060252544 0.057587724 -0.04848945 -0.003572636
000380 7a 10 85 3d 62 f7 84 bd c6 3f da bc e9 5f a4 bd
       0.06497283 -0.06492497 -0.026641738 -0.08026106
000390 af c7 18 bd de c5 3b 3d a3 88 47 3d c5 8d 1a 3c
       -0.037299808 0.045842998 0.04871429 0.009433215
0003a0 f8 20 a6 3d 2d 11 a5 bd c0 a2 ac bd f8 e1 43 bd
       0.08111757 -0.08059917 -0.084294796 -0.047822922
0003b0 68 17 34 3d b0 fe 99 3d 01 9f b5 bb 65 f7 1b 3d
       0.043967634 0.07519281 -0.0055426364 0.03807773
0003c0 40 0d 48 3d e2 92 07 3d 4c 1d c2 3c 04 9e ab 3d
       0.04884076 0.033099063 0.02369561 0.083797485
0003d0 00 41 7b bd 49 4d 69 bd ef 86 01 3d 42 65 47 bd
       -0.061341286 -0.05695847 0.031622823 -0.04868055
0003e0 08 09 60 bc 5b 1d 8e bd a1 94 07 bd 72 77 a1 bd
       -0.013674028 -0.06939193 -0.033100728 -0.078841105
0003f0 b0 ed 8d bd 70 9a ac bd 57 a2 02 3d 6c 19 8f 3d
       -0.06930101 -0.08427894 0.0318931 0.06987271

fc3.bias f4 [2]
000000 f6 59 3e 3e d2 b6 06 be
       0.18589005 -0.13155678

fc3.weight f4 [2, 84]
000000 53 12 ba bd e0 1e 70 3d e9 08 18 3b 52 2e a9 3c
       -0.09085526 0.058623195 0.002319867 0.02065197
000010 f2 63 4a bd d2 54 0a 3e 85 87 6f bc 4a b0 c3 3d
       -0.04941172 0.13508919 -0.014619713 0.09555109
000020 aa 31 77 3d f5 0e 68 bd 5c 09 b4 bd 24 42 4e 3c
       0.060350098 -0.05665489 -0.08790848 0.012589011
000030 37 e9 c1 3d 3f be 67 bd 83 53 31 3e 92 93 10 be
       0.0946831 -0.056577917 0.17317013 -0.14118794
000040 fd 9c a8 bd c8 39 df bd 83 58 69 bd e6 63 d4 bd
       -0.08233068 -0.10899693 -0.056969177 -0.103706166
000050 7a 5f c3 bd 28 0d 15 bd 74 ab 91 3d cf 65 92 bd
       -0.09539695 -0.0363895 0.0711278 -0.07148325
000060 ca 12 60 3d 5c 09 a2 3d 64 9b 03 3d 50 6f 6f 3d
       0.05470542 0.079119414 0.032130614 0.058455765
000070 de d2 23 3e b5 1d 00 be bb 6c 9e 3d 8a 6b e4 3d
       0.15998408 -0.12511332 0.077355824 0.11153324
000080 4d 41 e2 3d ef 01 b8 bd e3 4d 4b bd ad 90 34 3d
       0.110476114 -0.08984744 -0.049634825 0.044083286
000090 ba a3 8c bd 2f 4e cd 3d e9 12 9b 3c 92 65 dd 3d
       -0.06867166 0.10024678 0.018929916 0.108103886
0000a0 3c 61 1f bd b4 4e 70 3d 2e b0 b9 3c 07 51 02 be
       -0.03891109 0.058668807 0.022667017 -0.12726222
0000b0 f2 0d 9c 3d d3 db c9 3d 6f cf 0e 3d 66 4e d2 3d
       0.07619847 0.09856381 0.034865793 0.102688596
0000c0 c8 26 1e be df 6c 15 bd a9 9f ca bc 7b 1d b6 bd
       -0.15444481 -0.03648078 -0.024734335 -0.08892342
0000d0 f1 84 03 be a4 43 b8 3d 53 1b b2 bd 21 38 b6 3d
       -0.12843682 0.089972764 -0.08696618 0.088974245
0000e0 e0 1e b7 bb 44 74 c4 bc ea 6f a4 bd 34 4f 02 be
       -0.0055883974 -0.023981221 -0.080291584 -0.12725526
0000f0 49 c2 99 3d a6 36 bc 3c f2 63 8b 3d ac b5 b4 bc
       0.0750776 0.022975277 0.068061724 -0.022059284
000100 4a 7b 0e 3e fd a4 bc 3c 31 02 c1 3d 00 4e 9c bc
       0.13914219 0.023027891 0.09424246 -0.019080162
000110 fb 34 7d 3d 6a 89 54 bc 81 e6 97 3c 99 b1 8e 3d
       0.061818104 -0.012972215 0.01854253 0.06967468
000120 52 6f 49 3d be 02 b7 b9 98 31 a5 bd a5 00 cf bd
       0.04917843 -0.00034906523 -0.080661 -0.10107545
000130 af 60 56 bc 9c e6 3e bc 5c 3b 5a 3d 05 c4 79 3d
       -0.013084575 -0.011651661 0.053279266 0.060977954
000140 a3 48 80 3d a1 66 ab 3d d5 c6 8e 3d 9f 54 87 3d
       0.06263854 0.08369184 0.06971518 0.06607937
000150 cc cf 2d bd b0 80 15 be c8 dd 0b bd 42 f2 21 3d
       -0.0424345 -0.14599872 -0.034147054 0.039537676
000160 9f 82 29 3b c2 59 94 bd cd 72 df bc 00 ac b7 3c
       0.002586521 -0.072436824 -0.027276421 0.022420883
000170 76 64 7d bd be 1f b6 bd 37 9f f9 bd ed 07 5c 3c
       -0.061863385 -0.08892773 -0.12188571 0.013429624
000180 14 e9 b4 3c be 9e 57 3d 67 13 33 be 35 b6 13 3e
       0.022083797 0.052641623 -0.1748787 0.14424975
000190 1f 68 1e 3e 47 c3 22 ba 78 db 50 bd 66 d8 81 bc
       0.15469407 -0.0006208908 -0.05099055 -0.015850257
0001a0 f8 68 2f 3e 30 dc 17 bc ab 61 f3 3c 01 85 f9 3d
       0.17129886 -0.009268805 0.029709658 0.121835716
0001b0 9d 5b 1f 3e 2b d7 1c 3d ae e2 eb 3d 2a da d2 bc
       0.15562291 0.038291138 0.11517845 -0.025738794
0001c0 b4 2f 12 be ad 2c ee 3d df e2 89 bd de 6e 9a bb
       -0.1427601 0.11629615 -0.06732725 -0.0047129234
0001d0 02 e0 36 3d 11 3a 9e 3b 0a df 88 bd c5 f0 0e be
       0.044647224 0.0048286994 -0.06683166 -0.13959034
0001e0 b4 fe 8b bd 81 2e 53 bd d5 ae 95 bc 8c dc 95 bc
       -0.0683569 -0.05155802 -0.018271843 -0.018293642
0001f0 37 3d 46 3d 9f 01 83 bc 50 88 a9 3d 68 2d 5e 3d
       0.048398223 -0.015991984 0.08277953 0.05424252
000200 c3 81 81 3c 05 e8 c1 bd 18 73 b5 bd d8 20 61 3d
       0.015808946 -0.09468082 -0.08859843 0.054962963
000210 34 48 27 bd 0c 41 da 3c 63 3c 0b 3e fd 63 39 3e
       -0.040840343 0.026642345 0.13597254 0.18104549
000220 24 9a df bc 50 71 8b bd b1 7b cc 3c 02 05 ab bd
       -0.02729518 -0.06808722 0.024961324 -0.083505645
000230 fc 60 39 bd 0b 29 d8 3d 22 5b 88 3d aa 1b f5 3d
       -0.045258507 0.10554703 0.06658007 0.11968167
000240 a1 fb c9 3d 23 79 3c 3d 96 a8 b7 3d 5c 5e 68 ba
       0.098624475 0.046013962 0.08967702 -0.00088641583
000250 56 2c 87 bd 0f 6c 65 bb 7c 7a bf bd 43 eb e9 3d
       -0.06600253 -0.0035007035 -0.09349534 0.11421826
000260 24 72 8e 3d dc 1e 45 bd 43 2c e5 3c 66 58 6c bd
       0.06955364 -0.048125133 0.027975207 -0.05770149
000270 f2 4b 85 bd 3d 84 ff bd a1 27 f7 3d ed 57 22 3e
       -0.06508626 -0.12476394 0.120681055 0.15853854
000280 42 14 bc 3d 4b 23 b1 3d 37 1b e9 bc 66 80 b8 3d
       0.09183551 0.0864931 -0.02845536 0.09008865
000290 39 a8 be bd db da 7d bc b8 b3 1a bd 02 b7 ba 3c
       -0.0930943 -0.015494074 -0.03776905 0.022792343
