3.Machine_learning/4.neural_networks/1. rt_webcam_class_PyTorch/my_model.pth (torch_old, 246841 bytes, 10 tensors)

conv1.weight f4 [6, 3, 5, 5]
000000 21 ee 74 3d be c6 46 bd 13 1a 90 bb 5c 1d 74 bd
       0.05979741 -0.04852938 -0.0043976395 -0.05959831
000010 c8 6b 07 3e 0e ee cc 3c 06 84 36 3d dd 30 d2 3d
       0.13224709 0.025015857 0.0445595 0.10263226
000020 ec 2c 23 3e fe 48 09 3e d1 0b 00 3d f3 22 0c 3e
       0.15935105 0.1340675 0.03126127 0.13685207
000030 56 bd db 3d c9 b3 af bc 0a 74 aa 3b c7 52 6a bd
       0.10729472 -0.021448033 0.005201821 -0.05720785
000040 16 13 7f bc 6d 73 f2 3d 5a e3 18 3e dd 6e 22 3d
       -0.015568515 0.11838422 0.14930478 0.03965651
000050 e6 4a db bc 92 5d 39 bd ba 94 51 bd f1 d6 e2 3d
       -0.026769113 -0.04525525 -0.051167227 0.11076153
000060 bf a9 eb 3d e4 cd 6b 3d c5 ec 0e 3d d3 29 3a bd
       0.11506986 0.0575694 0.03489377 -0.045450043
000070 12 98 6d bd a9 f1 80 bd 4d 95 09 bc 2e ed 42 bd
       -0.058006354 -0.06296093 -0.0083974125 -0.047589473
000080 00 3a b7 bd 42 3b d2 bd 4f 81 bb 3c 49 99 e6 bd
       -0.089466095 -0.10265209 0.022888808 -0.112597056
000090 e2 09 3f 3a fc f8 a6 3d bc 2e 96 bd db 5e bf bd
       0.00072875444 0.08152959 -0.073331326 -0.09344264
0000a0 e1 77 a8 bd 87 91 54 bc de 77 20 bd 1c 84 80 3c
       -0.0822599 -0.01297415 -0.039176814 0.015687995
0000b0 61 5d 0a 3d 4a d2 de bd b2 7c da bd 5c 4c e5 bd
       0.03378046 -0.10879953 -0.10668315 -0.11196205
0000c0 8b cc a1 3d 0b e7 94 bd 3c 2b 21 bd 2e 83 2b bc
       0.079003416 -0.072706304 -0.039347872 -0.010468287
0000d0 29 5d c6 3b f2 07 f6 bd b5 f3 d0 bd d3 5d ab 3c
       0.006053586 -0.12013234 -0.102027334 0.020918762
0000e0 52 52 d7 bd c7 e2 ed bd 1d bb b6 bd b9 21 91 bd
       -0.10513748 -0.1161552 -0.08922408 -0.0708651
0000f0 2e 89 4e 3c fd 98 d5 bd 3d e0 a6 bd ec 04 0e be
       0.012605948 -0.10429571 -0.08148239 -0.13869065
000100 5e 8d da 3a 84 1c e1 bd 76 28 a8 bd 2b cf bb bd
       0.0016674211 -0.10991767 -0.08210842 -0.091703735
000110 70 25 fe 3b f2 c2 96 bc ce 8b 90 bd e5 a4 71 bd
       0.0077559277 -0.018403504 -0.07057916 -0.058995146
000120 df e9 42 ba 12 61 83 bd 3b 6d f1 3c 04 42 a4 bb
       -0.0007435362 -0.06414999 0.02947103 -0.0050127525
000130 2e 0a 4d 3d ae 71 e9 bd 7c d3 6f 3d ba c4 d9 3d
       0.050058536 -0.11398636 0.058551297 0.10633226
000140 c2 22 c7 3d 54 17 1f bd 17 e5 6b bd 2d 08 c1 bd
       0.097234264 -0.038840607 -0.057591524 -0.094253875
000150 36 b1 aa 3b 81 e3 59 bd cc f0 4b 3d 72 79 a7 bd
       0.0052091135 -0.05319548 0.04979019 -0.08177461
000160 c7 a5 19 bd 15 b4 e4 bd b9 df c4 3d f7 84 71 bd
       -0.037511613 -0.111671604 0.09612984 -0.058964696
000170 27 66 4c 3b b3 9d 45 bd 77 6d 89 bd f9 a1 51 bd
       0.0031188817 -0.048246097 -0.06710332 -0.05117986
000180 67 41 cc 3d 0e 5f 27 bd 32 c0 71 3d b2 9b 9b 3d
       0.09973412 -0.040862136 0.059021182 0.07598056
000190 bc 1b dd bd 10 e0 a6 bd 93 ce b4 3c 8c 98 37 3c
       -0.107963055 -0.08148205 0.022071159 0.011205804
0001a0 c3 1e ac 3d ac b9 9c 3c a6 79 67 bc 3e 24 31 bd
       0.08404305 0.019131504 -0.014128124 -0.043247454
0001b0 e5 fe ac bd a8 a2 82 3d 74 ed 3a 3d 3d 53 27 bd
       -0.08447055 0.063786805 0.04563661 -0.040850867
0001c0 28 0b 2e 3d 95 79 71 bd 1e e8 94 3c 53 19 91 bd
       0.04249111 -0.05895384 0.018177088 -0.07084908
0001d0 09 cc ee bd d1 12 9e bd f1 2f bf bd 5c 4f a3 bd
       -0.1166001 -0.07718433 -0.09335316 -0.07974121
0001e0 30 ed 1d bd d0 4c b2 3d 82 f4 11 3d 75 9b b7 bd
       -0.038556278 0.08706057 0.03563357 -0.08965198
0001f0 9b 84 44 3d ba 2a 80 bc 53 09 93 3d d4 6e c8 bd
       0.047978025 -0.015645374 0.07179513 -0.09786764
000200 a3 bd 1a 3b 46 1d e1 bb 54 b2 2d 3d c6 5f 1d bc
       0.0023611567 -0.0068699447 0.042406395 -0.009605354
000210 98 97 db bd ee 05 c7 3d 51 d4 88 bd 33 2f b4 bb
       -0.107222736 0.09717928 -0.06681121 -0.0054987906
000220 de 3a c3 bd b3 57 f8 bb 89 8f cf 3b 63 16 61 3d
       -0.095327124 -0.007578814 0.0063342494 0.05495299
000230 6f 27 2c bb 92 35 e6 3d 3a 76 44 3d cc 45 6a bd
       -0.0026268621 0.112406865 0.047964312 -0.05719547
000240 6d 0b c8 bd 25 5a 40 3d 36 99 24 bc 1e 03 86 3d
       -0.09767804 0.04696097 -0.010046294 0.06543563
000250 d4 7f 1e 3d c7 07 28 bd bf fe db bd 77 7e d4 3b
       0.038696125 -0.041023042 -0.10741948 0.0064848023
000260 44 a0 36 3d 8b a1 1b be 27 7c b4 bd 07 1b ec bd
       0.044586435 -0.15198343 -0.08812743 -0.115285926
000270 51 41 14 be 94 30 29 be 7f a0 22 be 33 09 3a bd
       -0.14478041 -0.16522437 -0.15881537 -0.04541893
000280 79 2a 77 3d 81 24 54 3d d3 98 cf 3c c1 58 3b bd
       0.06034324 0.051792625 0.025341427 -0.04573894
000290 16 ab fb bd 69 83 b7 bd d7 45 19 be c2 72 25 bc
       -0.122884914 -0.089606114 -0.14968048 -0.010098161
0002a0 cd 21 88 bd ee 41 95 3d 21 02 0f 3d 54 ff 2d bd
       -0.06647072 0.07287966 0.03491414 -0.042479828
0002b0 06 aa 10 be 45 2f af bd de a3 9c 3b b3 96 fb bd
       -0.14127359 -0.08553938 0.0047802767 -0.12284603
0002c0 5c d8 df bd a3 41 0f be f4 80 04 be 4f ee 57 bd
       -0.10929939 -0.13989882 -0.12939817 -0.052717503
0002d0 d5 0a 90 bd 2c 65 c9 bc 71 96 89 bc 0c 1f 35 bc
       -0.07033316 -0.024584375 -0.016795369 -0.011054765
0002e0 f3 00 81 3b 29 58 36 bd cf 50 eb bd 63 59 3e 3d
       0.0039368807 -0.04451767 -0.114900224 0.046471965
0002f0 55 64 b7 bd 7a 20 ac 3d 35 3d f9 3c 2b d6 c6 bd
       -0.08954684 0.08404632 0.030424694 -0.09708818
000300 63 11 a2 bd 71 cc 96 3d bc 62 ea 3c 3a 1a b2 3a
       -0.079134725 0.07363213 0.028611533 0.0013588138
000310 3e 97 49 3d a3 14 d7 b9 8e c5 00 bc 1f 0d a6 bd
       0.0492165 -0.0004102337 -0.007859601 -0.081079714
000320 2b b7 71 3d 9f fe a7 bb 34 69 5f bd ea 72 62 3d
       0.059012573 -0.0051267887 -0.05454369 0.05528537
000330 df 2a 01 3d 2a 66 9d bd 26 17 06 3e 92 14 e8 3d
       0.031535026 -0.07685502 0.13094768 0.113320485
000340 64 a5 56 bd 5e 05 3e 3d e7 62 12 bc cc 74 a9 3d
       -0.052403823 0.046391837 -0.008934713 0.0827423
000350 11 ca 35 bd 87 cc 21 3d ad a3 7b 3d f2 f0 0a bc
       -0.04438216 0.039501693 0.06143539 -0.008480297
000360 eb c7 82 bd 15 ef 4e 3d c0 c2 00 3e 99 0b 0d bb
       -0.063857876 0.050520975 0.12574291 -0.0021521805
000370 37 5d f8 3a 88 6a d0 3d d1 d7 bc bc 65 dc 8a 3d
       0.0018948679 0.10176569 -0.023052128 0.06780318
000380 ba 08 08 3e 73 78 de 3d 43 a6 09 3e ad de 3a bd
       0.13284579 0.108628176 0.1344233 -0.045622516
000390 58 e3 0c 3e b7 08 dd 3d e0 75 38 3d 29 25 88 3d
       0.137586 0.10792678 0.04503429 0.06647713
0003a0 5b 91 93 bc 56 ba d8 bc d7 0f 54 3d 7b 5a 14 bd
       -0.018013647 -0.02645604 0.05177292 -0.0362191
0003b0 b0 b0 92 3d c1 fc 10 3e 17 dd 16 3b d7 44 b7 3c
       0.07162607 0.14158918 0.0023019963 0.022371693
0003c0 76 d8 ac 3d 0e 73 9c bc cf 1f ba 3d 92 d1 75 3d
       0.08439724 -0.019097831 0.09088098 0.060014315
0003d0 b7 5d ac bc f6 dc 5f 3c e8 49 69 bd 19 1d 1b 3e
       -0.02104078 0.013663521 -0.056955248 0.15147819
0003e0 2e e2 8d 3d 57 db f3 bb 96 0d 4e bd 7c f3 0a be
       0.06927906 -0.007441919 -0.050305925 -0.13569444
0003f0 cb a2 c9 bd 02 23 92 bd 8b a8 80 3d 0e 27 aa 3c
       -0.098455034 -0.071355835 0.06282147 0.020770576

conv1.bias f4 [6]
000000 84 79 5b bd 1e 75 cd 3d 5c 04 f5 3b 19 48 0a be
       -0.053582683 0.10032104 0.0074773263 -0.13504066
000010 a8 30 dd bd 93 c2 92 bd
       -0.10800296 -0.07166018

conv2.weight f4 [16, 6, 5, 5]
000000 f9 1e 7e bd a4 70 3a bd 06 d1 93 bd ed eb 15 3d
       -0.062041257 -0.04551758 -0.072176024 0.03660195
000010 40 5e 03 bd 01 eb 44 bd 10 a3 37 bd ad b3 06 bd
       -0.032072306 -0.04807568 -0.044833243 -0.032886196
000020 3a 12 99 3d cc d0 a1 bd d8 70 8c 3c aa 16 53 bd
       0.074741796 -0.07901153 0.017143652 -0.051535286
000030 ab 45 1a bd 0a 22 81 bd 44 11 2b 3c d0 e5 53 bd
       -0.037664097 -0.063053206 0.010441128 -0.05173284
000040 de 7c e0 3a 84 ce 1b 3d 70 67 64 3c 09 4a 22 bc
       0.0017127057 0.038038746 0.013940677 -0.009905347
000050 fa 69 1e 3d 6c ff 59 3d ed 92 7d 3d 7e 1e 4e 3c
       0.038675286 0.053222105 0.061907697 0.012580512
000060 45 6c 3c bd ee ef a5 bd 88 39 70 3d 96 1c 22 bc
       -0.04600169 -0.081024036 0.058648616 -0.009894511
000070 22 9f cf 3a 82 d2 d9 3c 64 ca e8 3b 63 a8 8c 3d
       0.0015840272 0.026589636 0.007104205 0.06868055
000080 bc 7e 59 bd 29 70 01 bd 97 7e e8 3c 13 65 e6 3c
       -0.05309938 -0.031601105 0.028380675 0.028124368
000090 3e 5a 9f bd 95 79 1c bd 15 26 34 3d 54 dc e6 3b
       -0.07780884 -0.038201887 0.04398163 0.007045308
0000a0 12 09 b8 bc 44 c4 9e 3c 0d 44 a0 bc 14 57 85 bd
       -0.022465263 0.019380696 -0.0195637 -0.065107495
0000b0 44 f7 6e bc 89 cc 85 bd 54 03 03 bd 11 2a 07 3d
       -0.01458532 -0.065331526 -0.031985596 0.032999102
0000c0 3c ae 66 3d ea a6 a5 bb 53 7d 84 3d 49 2e 80 bd
       0.056318507 -0.005055298 0.06469216 -0.06258828
0000d0 22 a7 c5 bc c2 2e 8d bd db 5f 99 3d 93 8a 87 bc
       -0.024127547 -0.06893684 0.07488986 -0.01654557
0000e0 61 28 1d bd 90 f8 73 bc 3c 27 70 bd f1 dc df 3c
       -0.038368586 -0.014890805 -0.058631167 0.027327033
0000f0 e8 fc e3 3c ff 1d 9a 3d 4e e5 6c 3c 73 e0 3e 3d
       0.027830556 0.075252526 0.014458967 0.04660077
000100 f8 12 2d 3d 54 81 a1 3c e1 bf 5f 3d 25 e3 32 3d
       0.042254418 0.019714989 0.05462635 0.043673653
000110 16 ab 04 bd 92 6c 84 bd 26 23 a3 bd d3 f4 ed bb
       -0.032389723 -0.06466021 -0.079656884 -0.0072618513
000120 00 6d 9c bd 0c 70 10 3d 79 45 9d bc 56 80 3e bc
       -0.076379776 0.035263106 -0.019198166 -0.011627277
000130 8a 4d e5 3c 33 39 20 3d 02 59 24 bd 25 44 6b bd
       0.027991075 0.03911705 -0.040123947 -0.057438035
000140 2b ba 25 3a 14 0a e9 3c 5a 2a 13 bc f9 91 ef 3a
       0.00063219917 0.028447188 -0.008982265 0.0018277756
000150 e0 2b 0d bc 72 a3 a0 bd 1a 9c bd bc 3b 49 38 3d
       -0.008616418 -0.07843675 -0.023145724 0.044991713
000160 d1 56 5b bc 42 62 18 3d fc 6c 89 3d bd 11 f3 bb
       -0.013387398 0.03720308 0.0671024 -0.007417886
000170 36 0c 66 bd 07 df 3b bd 5b ad ca 3a 25 b5 80 3c
       -0.05616399 -0.045866992 0.0015463041 0.015711376
000180 e3 0f 46 3d 76 f5 dc bb 61 fb c3 3c 37 60 4b bd
       0.048354995 -0.0067431284 0.023923578 -0.049652305
000190 76 30 ed bb ab 6d bf bb ae 72 05 3d 19 8a 05 bd
       -0.007238443 -0.005841931 0.03258007 -0.032602403
0001a0 ed 12 56 bd 3c 30 2f bd 78 56 53 3d ac 59 2d bd
       -0.052264143 -0.04277061 0.051596135 -0.042321846
0001b0 e2 22 29 bc a0 e6 3f bc d8 a5 89 bd 3b d5 92 3c
       -0.010323258 -0.0117127 -0.06721085 0.017923942
0001c0 07 de 80 bb 69 45 96 bd 15 64 5f bd fe 4f 9b bd
       -0.0039327177 -0.07337458 -0.054538805 -0.07583617
0001d0 c5 d0 a3 3d 0c d8 a0 3d d2 c6 fb b9 fc 7c 9a bc
       0.07998804 0.07853708 -0.00048022583 -0.018858425
0001e0 8e 6f 99 3d 1a ef 13 3c f5 82 53 3d d6 35 44 bc
       0.074919805 0.009029174 0.051638562 -0.011975726
0001f0 de e4 00 bd 1e 2c 8a 3c df 61 49 3d 3c d8 72 bd
       -0.031468265 0.01686674 0.049165603 -0.05928825
000200 99 71 9a bd ae b5 9a bd d2 b2 41 bd 22 d3 95 bd
       -0.07541198 -0.07554184 -0.047289677 -0.07315661
000210 da c2 d5 3c 88 09 94 3d 08 61 84 3d e0 ee a9 3c
       0.026093889 0.072283804 0.0646382 0.020743787
000220 c2 97 f3 3c f5 e5 74 3d 33 dc 29 bd 1a 2e 21 3d
       0.02973545 0.059789617 -0.041469764 0.039350607
000230 36 f5 7b bd b5 5d 13 bb a6 0d 5f 3d 48 f6 4f bd
       -0.06151315 -0.0022486274 0.054456376 -0.05077198
000240 22 c0 a1 3d 1f f2 33 3d 97 cd 84 bd 4c c9 5a bd
       0.078979746 0.043932077 -0.06484526 -0.053414628
000250 a8 5f 35 bb 1e 3f 10 3b ea c5 29 3d 83 07 9f bd
       -0.0027675424 0.0022010277 0.04144851 -0.077651046
000260 d4 26 18 bd d3 5b 24 3d c5 ef 65 bb ec 3e 2c bd
       -0.037146404 0.040126633 -0.003508554 -0.042052194
000270 b7 97 70 bd 1f ce 00 3d cb 2c d6 3c c1 60 18 bd
       -0.058738437 0.031446572 0.026144406 -0.037201647
000280 03 02 4f 3d 65 04 77 bb ec 0b a4 bd 20 c3 38 bc
       0.050539028 -0.0037691828 -0.080100864 -0.01127699
000290 5c 1e 0f 3d 9e 96 03 3d c9 f4 65 3c 0e e6 88 bd
       0.034941062 0.03212606 0.014035412 -0.066845044
0002a0 21 99 8e 3c b4 cc 3a bc 70 64 bd 3b 66 67 b8 bb
       0.017407002 -0.011401344 0.0057797953 -0.0056275604
0002b0 5e ab 1b bc 19 29 98 bd dd 71 a1 bd a7 64 05 bc
       -0.009501306 -0.07429714 -0.07883046 -0.008141673
0002c0 93 63 86 3d c4 78 85 3d 5c a9 88 bd e7 cc c7 b9
       0.06561961 0.06517175 -0.06672928 -0.00038108902
0002d0 28 47 2b bd dd a9 96 bd 1c 0f 36 bd b6 e7 2d bd
       -0.041815907 -0.073566176 -0.044448003 -0.042457305
0002e0 47 b2 7d bc 57 13 68 bd a0 28 8c 3d 4d b6 b7 bc
       -0.015484399 -0.05665907 0.06843686 -0.022425795
0002f0 d1 c9 7a bd 55 a9 51 bc 62 bf 7e bd 38 13 db bc
       -0.061227623 -0.01279672 -0.062194236 -0.026742563
000300 c0 71 3c 3d e5 1d 14 3d d2 8c 23 bd f4 2d a2 3d
       0.046006918 0.036161322 -0.03992922 0.07918921
000310 22 f8 15 bc 6b e3 43 bd c7 34 a6 3d 2e cc 9a 3d
       -0.009153398 -0.047824305 0.08115535 0.075584754
000320 56 c0 47 3a 44 2d 86 3d 26 09 b6 bb 7a 00 35 bd
       0.0007619908 0.065516025 -0.00555529 -0.044189908
000330 37 85 ed bc b9 15 bc ba 52 4b 98 bd 44 ee 02 bd
       -0.028994186 -0.0014349736 -0.07436241 -0.03196551
000340 d9 dc a0 3d 03 c7 22 bb ee 99 91 bb e2 d5 54 bd
       0.07854623 -0.0024837859 -0.0044433987 -0.051961787
000350 ba 7b 87 3d ba 8a cc 3a a5 6e 85 bd bf 2d 17 bd
       0.06615396 0.0015605309 -0.065152444 -0.03690886
000360 ff 7a 9e bc 46 83 0a bd ec 25 15 3d f1 7d 3c 3d
       -0.019345758 -0.0338166 0.03641312 0.046018545
000370 82 82 f2 3c 08 43 75 3d 19 2b 8d 3d b1 5b 29 bd
       0.029603247 0.05987838 0.06892986 -0.04134721
000380 60 a2 0f 3c 45 80 29 3d 5f 69 1d 3d 59 ff 20 bd
       0.008766741 0.041382093 0.038430568 -0.03930602
000390 74 45 1a bd dd bf 5e bd 76 43 48 3d 36 c0 96 3d
       -0.037663892 -0.054382194 0.04889246 0.0736088
0003a0 81 66 d6 3b 9f 43 4d bd 36 72 9c bd fa 3c 73 bc
       0.006542981 -0.050113317 -0.076389715 -0.014846081
0003b0 36 9e 57 3d 7b 91 ec 3a f6 50 8a 3b 03 ad 4f bd
       0.052641116 0.0018048728 0.004221077 -0.050702106
0003c0 fb bd 24 bb ee 8f 89 3d 38 1c 81 bd 84 ca ca bb
       -0.0025137651 0.067169055 -0.063042104 -0.0061886925
0003d0 1e 5c 8a bd 19 14 87 3d d5 45 2d bd 91 b5 d6 bc
       -0.06755851 0.0659563 -0.042302925 -0.026209624
0003e0 0e 26 59 3c e1 6a b0 3c fa 30 f5 3c 44 74 a4 3d
       0.013253702 0.021535339 0.02993058 0.080299884
0003f0 5e 62 83 ba 43 60 81 3d c9 07 11 bd d1 cb 8c bd
       -0.0010023823 0.063171886 -0.035407815 -0.068748124

conv2.bias f4 [16]
000000 3e 78 ea 3c 43 d1 7d bd 24 dd 38 3d 71 d4 85 bd
       0.028621789 -0.061967146 0.04513277 -0.065346606
000010 e3 d3 33 bd 06 bd f9 3d ab 84 d1 3c 74 b1 5f 3d
       -0.043903243 0.121942565 0.025575956 0.054612592
000020 a2 eb df 3d 8b 11 12 bc 5b aa 51 3d 63 7a fe bc
       0.10933615 -0.008915315 0.051187854 -0.031064218
000030 61 e2 0d 3c 19 3f 87 bc 4d 15 8c ba bb ba 82 ba
       0.00865993 -0.01650958 -0.00106875 -0.0009973863

fc1.weight f4 [120, 400]
000000 f6 40 d1 bc a7 0b 0e 3c d6 c7 4f 3c f3 95 13 3d
       -0.025543671 0.00866977 0.012681922 0.036031675
000010 a0 9e 87 3c c9 a7 0a 3c 7a 82 29 3c 4f 3e b6 3b
       0.01655513 0.008462855 0.010346049 0.005561627
000020 55 c0 af bc c0 50 29 bd 7a 05 65 ba e9 69 48 bd
       -0.021454016 -0.041336775 -0.0008736473 -0.04892913
000030 2b 38 29 bd cf e5 c4 bc d8 74 2b bd 79 d8 1d 3d
       -0.04131333 -0.024035363 -0.041859478 0.038536523
000040 f6 48 6e 3c 1b d0 94 3c 50 36 15 bd 32 a5 33 bc
       0.014543762 0.018165639 -0.03642875 -0.010964679
000050 86 34 33 bd 11 86 a7 bc 38 50 02 3d f3 01 40 3d
       -0.043751262 -0.02044967 0.031814784 0.04687686
000060 61 63 bf 3c f3 7f 33 bd 72 17 ae bc aa ec 48 3c
       0.023362817 -0.043823194 -0.021251414 0.012263456
000070 3d d3 0a bd 9d b1 84 3b 5f 24 16 ba 5c eb d8 bc
       -0.03389286 0.0040494935 -0.00057274656 -0.026479416
000080 a3 6e c9 bc 30 b1 f3 3c ee f7 88 bc e6 fc d6 bb
       -0.024588889 0.029747576 -0.016719785 -0.0065609096
000090 43 2e e8 3c f0 54 04 bd e9 64 16 3d 80 38 f7 bb
       0.028342372 -0.032307565 0.03671733 -0.007544577
0000a0 15 de ad bc 36 0f 01 3d 14 3e 19 bc 52 a4 90 3c
       -0.021224061 0.031508647 -0.0093531795 0.017656479
0000b0 aa d7 41 bd b9 5f 27 bc 05 73 aa bc 94 7b f0 bc
       -0.047324814 -0.010215693 -0.020806799 -0.029355802
0000c0 69 86 1d 3d 50 10 1b 3d 69 ba 39 3d 64 22 39 bd
       0.03845826 0.037857354 0.04534379 -0.045198813
0000d0 97 b0 df 3c 5b d1 d2 bc 63 76 89 3b 18 fc 44 bc
       0.027305884 -0.025734594 0.004195021 -0.012022994
0000e0 e0 38 ea 3c e4 6a 63 3b 2d fe 15 3d 52 ad bb 3c
       0.028591573 0.0034701163 0.036619354 0.022909794
0000f0 f4 86 b9 bc 46 74 cc 3c 6b 10 fd 3c 23 f1 9b 3b
       -0.022647358 0.024957787 0.030891618 0.0047589703
000100 a9 9a fb 3a 15 c8 02 3d 76 4d ab 3c 9d e5 1e bd
       0.0019195873 0.031929094 0.02091096 -0.038793195
000110 1e 00 35 bd 02 58 3d bd ca 3a 16 3d e7 ce d8 bb
       -0.044189565 -0.04622651 0.03667716 -0.0066164616
000120 e9 c1 b7 3c b2 c4 be bc ef a8 a7 3b 37 73 37 3d
       0.02243133 -0.023287151 0.005116574 0.04478761
000130 a0 d7 c3 3c da e0 ef bc d4 6d df 3b 3f 3a a6 3c
       0.023906529 -0.029282022 0.0068185125 0.020291446
000140 62 fa 14 3d 4e 46 5f 3c 0d a6 05 bd 82 a8 d0 bc
       0.036371596 0.013627602 -0.03262906 -0.025470976
000150 e1 2c 6d bc a1 c3 41 3c 44 b0 64 3c b9 9c a4 bc
       -0.014476032 0.011826427 0.013958041 -0.020094262
000160 29 bb 9a 3c 52 75 bd bc 35 89 46 3d 22 aa 40 bd
       0.018888073 -0.023127232 0.048470695 -0.04703725
000170 92 0a 22 bd a8 87 34 bd 3c c2 94 bc a5 03 08 bd
       -0.039560862 -0.044074684 -0.018159024 -0.0332066
000180 3e 65 15 3d d5 b4 b8 bc 9e 3f 26 3d 07 54 0d bc
       0.036473505 -0.022547165 0.040588014 -0.008625991
000190 b1 29 9d 3c fe c2 2c bc 5b 06 e8 3c 05 f8 77 bc
       0.01918492 -0.010544537 0.028323343 -0.015134816
0001a0 a8 02 7d bc d5 1c 07 bd 93 7c 2c bd 4b cf 21 3d
       -0.015442528 -0.03298648 -0.04211099 0.03950433
0001b0 62 f2 ea 3c 6f 24 1a 3d e4 79 7e 3c b3 27 3c 3d
       0.02868003 0.037632402 0.015531991 0.045936298
0001c0 fc ed 93 bc 8b 6d 11 bc 7f 17 25 3d 4d c1 fc 3b
       -0.018057816 -0.008876215 0.04030561 0.007713473
0001d0 c7 18 3c bc 9d ab d1 3c 42 81 37 bd c6 cf b3 3c
       -0.011480517 0.025594527 -0.044801004 0.02194966
0001e0 cc 2a e7 3c fb eb 17 bd 77 fe a2 bc 40 f9 85 3c
       0.02821865 -0.037090283 -0.019896729 0.016354203
0001f0 aa 63 28 3d 39 a8 81 bb 88 b5 c4 bc d3 b3 ee bc
       0.041110672 -0.0039568213 -0.024012342 -0.029138481
000200 12 07 a7 3c 1a 4c 26 3d e9 b7 97 3c c4 75 3e bd
       0.020389114 0.04059992 0.018520312 -0.04649903
000210 e4 99 2d bd 23 02 c5 bc 53 fa 9c bc 6e da 0e 3d
       -0.04238309 -0.02404887 -0.019162333 0.03487628
000220 5f f6 2f 3d 3f d6 0c bb 37 5d 48 3c d3 97 cd 3a
       0.042959567 -0.0021490005 0.012229255 0.0015685506
000230 a9 5a 33 3d 25 af 2b bd 82 0f 9c 3c 24 b5 3b bc
       0.043787632 -0.041915078 0.019050363 -0.0114567615
000240 47 21 ff 3b 18 85 b8 3c 62 a1 04 bd f4 68 dc 3c
       0.0077859494 0.022524402 -0.03238047 0.026905514
000250 1a 3b ee bc 81 ee 44 bd 1a 3a 30 bc a4 a1 76 3c
       -0.029080916 -0.048079018 -0.01075604 0.015053187
000260 0a aa 1e bd 1d e9 a8 3c c9 1f 35 3d 23 ee e2 3c
       -0.03873638 0.02061897 0.044219766 0.027701443
000270 88 81 a4 bc 5d be 05 3d 7c b0 a3 bb ec a4 d8 bc
       -0.020081297 0.032652248 -0.004995404 -0.026445828
000280 64 62 dc bc 04 8d f7 3c 2a 02 1f bd 25 1e 11 bd
       -0.026902385 0.030218609 -0.038820423 -0.03542914
000290 fb 5d ad bc cd 98 65 bc 74 b5 09 3d a8 3d 4a 3c
       -0.021162977 -0.014013481 0.033620313 0.012343802
0002a0 e8 b5 84 3c 66 83 07 bc a1 73 4c 3d c4 6c 41 3d
       0.01620002 -0.008271074 0.04991496 0.047222868
0002b0 3b 96 9d 3c e4 2b 32 bd a5 1e 62 3c f8 1c a4 3c
       0.019236675 -0.04349889 0.013801252 0.020033345
0002c0 63 95 86 3c 56 c2 4a 3c 70 ba 93 3c a9 9e 29 3d
       0.016428655 0.012375435 0.018033236 0.041411076
0002d0 91 bc 91 bc f4 23 9f 3b e4 31 ce 3c 9a 6d f0 bc
       -0.01779011 0.004856581 0.025170274 -0.029349137
0002e0 98 ea 1f bd 47 1b 91 3a 37 52 0d 3a 08 b4 d0 bc
       -0.039042085 0.0011070751 0.0005390974 -0.02547647
0002f0 6c 73 dd 3c 0e aa 1d 3d 4e fd ad 3c e0 9b d5 bc
       0.027032577 0.038492255 0.02123895 -0.026075304
000300 09 89 aa bc d9 3c 1a 3d 54 2a 81 bc 73 34 93 bc
       -0.020817297 0.037655685 -0.015767254 -0.017969346
000310 91 91 04 bd 06 69 ba bb fc e5 96 bc 69 f3 3c 3d
       -0.032365385 -0.0056887893 -0.018420212 0.04613057
000320 f7 0d b7 bc 7b 93 53 3c a3 42 20 3d 51 8e bb 3c
       -0.022345526 0.01291358 0.03912605 0.02289501
000330 92 5b 7e 3c 6a 01 0a 3d e3 49 31 bd 97 f6 2f 3d
       0.015524762 0.033692755 -0.043283354 0.042959776
000340 b2 7c 6f 3c 5d fd d9 bc cb d2 b1 3c 80 6b 34 3d
       0.014617132 -0.02661007 0.02170696 0.044047832
000350 45 49 30 3c 09 35 e5 3b 22 6e 00 3b bf e2 34 3d
       0.010759656 0.0069948477 0.0019596894 0.044161554
000360 c2 07 3d 3c e2 72 bb bc 5b 9c 3b 3d 22 f6 b7 3c
       0.011537494 -0.022881929 0.04580341 0.022456232
000370 4f 57 f0 3c b2 8c 88 bc 24 42 84 bc c2 7e 97 3a
       0.029338507 -0.016668651 -0.01614482 0.0011558163
000380 26 86 86 3c ae c0 fb 3b 30 03 3f bd c1 d2 c5 3c
       0.016421389 0.0076828813 -0.0466339 0.024148347
000390 57 b3 85 3c 85 63 ab bc f4 8d f6 ba 9c 8b 91 3c
       0.016320867 -0.020921478 -0.0018810616 0.017766766
0003a0 f6 17 f9 3c a1 12 2f bd 20 ba 45 3d b7 ba d0 3b
       0.030406933 -0.042742375 0.048273206 0.0063699144
0003b0 c1 e7 3c 3d a7 66 f0 3a 02 21 60 3c 7b ec 1b 3d
       0.046119455 0.001834114 0.013679745 0.038067322
0003c0 23 64 92 3c 40 65 02 3d c2 34 03 3d cb 13 0d bc
       0.017870015 0.03183484 0.032032736 -0.008610676
0003d0 36 d0 45 3d 95 2d 10 3a 61 1f 7e 3c 81 62 2e 3d
       0.04829427 0.00054999563 0.015510411 0.04257441
0003e0 b6 eb b4 ba e3 66 cc 3c 9f 4c fd 3a b5 f5 21 bd
       -0.0013803157 0.024951404 0.0019325203 -0.039540965
0003f0 b4 ef 64 bc f0 af 37 3d 4b e3 28 3d bb 56 87 3c
       -0.013973165 0.04484552 0.04123239 0.016520848

fc1.bias f4 [120]
000000 5e d9 30 3d 12 eb 42 bc 55 e4 43 bc 8a 99 17 bc
       0.043176048 -0.011896865 -0.011956294 -0.009252915
000010 0d e9 c4 3c ac d7 13 bd 3f 34 99 3c 47 e0 2d bd
       0.024036909 -0.036094353 0.01870167 -0.042450216
000020 1f 62 ce bb 15 ec 0f bc d5 45 d6 bc 07 97 fc bb
       -0.006298318 -0.008784314 -0.026156345 -0.0077084335
000030 63 d2 29 bd 51 93 9c 3c 12 0e 4c bd ea 98 f6 bc
       -0.041460406 0.019113215 -0.049818106 -0.030102212
000040 96 13 ed 3c 15 11 19 bb e8 92 42 3d 29 dc 2d 3d
       0.028940003 -0.002335613 0.047503382 0.04244629
000050 e0 6f 1d bb 3f c5 3d 3c 02 ca 11 bd 9c c5 25 bc
       -0.0024022982 0.011582672 -0.03559304 -0.0101179145
000060 f5 52 b5 3b 7d 53 41 bd df 78 83 bc d1 ed a5 3c
       0.005533571 -0.04719876 -0.016048847 0.020255001
000070 65 58 2a 3d 8c 02 36 3d 40 4e 61 b8 3b 23 3e bd
       0.041588206 0.044436023 -5.3717056e-05 -0.046420317
000080 d3 86 d7 bc b4 16 37 3c ac ad bc 3c 0f 75 25 bc
       -0.026309406 0.011174846 0.023032032 -0.01009871
000090 27 a0 9c 3c 9e 36 46 bc e8 39 05 3c 25 10 0e 3c
       0.019119335 -0.012097983 0.008131482 0.008670841
0000a0 f6 c6 da 3b 06 d8 19 bd fb d3 b4 3c 2f cd 36 bd
       0.00667655 -0.03755953 0.022073736 -0.044629272
0000b0 16 c1 97 bc 65 e4 3a 3d 0f 0e 1b 3d b8 14 f7 bc
       -0.018524688 0.04562797 0.037855204 -0.030161247
0000c0 26 fa a4 3c b2 9c c3 3c e3 98 73 3c b5 2b 49 bd
       0.020138811 0.02387843 0.014867994 -0.049113948
0000d0 68 60 39 3d 91 47 c5 3c b1 9a 46 bd 5d 90 ac bc
       0.045257956 0.024081977 -0.04848737 -0.021064932
0000e0 4e a2 b7 b9 3f cb 34 3d e2 0c 34 3c 7a 06 98 bc
       -0.00035025406 0.044139143 0.0109894 -0.018557776
0000f0 9a c9 26 3b 60 67 fc bc 48 0a f7 3c a0 d6 0f bd
       0.0025449754 -0.030811012 0.03015627 -0.03511679
000100 fa ab 07 3d e3 c1 b0 3c f8 8e 8e bc a4 77 2b bd
       0.033122994 0.021576827 -0.017402157 -0.041862145
000110 d3 7e 24 3d 2c 8d df 3b 59 8b d8 bc 88 a6 16 bd
       0.04016001 0.006822249 -0.026433634 -0.03677991
000120 39 d8 dc 3c 01 14 3c 3b a5 bd 54 3c 6a 9b 13 3c
       0.026958572 0.0028698447 0.012984668 0.009009222
000130 d8 17 8a 3b b9 71 32 bc 4f be 89 bb 13 ab 28 3d
       0.004214268 -0.010891371 -0.0042035948 0.041178774
000140 cd b0 c5 bc f3 da d2 bb 6c 2b 03 3d 4c a2 87 bc
       -0.024132157 -0.006434792 0.032023832 -0.016556881
000150 88 aa 0c 3a 87 c1 0a 3d 3f 81 43 3d ec 8e 88 bc
       0.00053659873 0.03387597 0.04773068 -0.016669713
000160 4d b5 a0 bc 93 f5 cc 3c 11 26 1d 3d 3b 0c 06 3c
       -0.019617701 0.025019443 0.03836638 0.008181627
000170 dd a3 42 bd 6e 71 27 3c 33 55 57 3c 3e eb 0e 3d
       -0.047519553 0.010219915 0.013142872 0.034892313
000180 96 d9 39 ba 2d 9c eb bc 64 58 a3 3c 37 36 e6 3b
       -0.0007089613 -0.028760994 0.019939609 0.007025506
000190 9a ba 29 bd 07 17 7d 3c 13 9e e3 bc 48 2d 4e 3c
       -0.041437723 0.015447385 -0.027785337 0.012584038
0001a0 c4 50 07 bd 4f b2 40 3d 94 ac c3 bb 2a c1 41 bc
       -0.03303601 0.04704505 -0.0059715007 -0.011825839
0001b0 41 97 56 bc cf 27 54 3c 2f 3e 9d 3c 13 a2 0b 3d
       -0.013097585 0.012948944 0.01919469 0.034090113
0001c0 f3 15 13 bc d6 a0 37 3d eb 33 24 bd 10 6b fe bb
       -0.008977401 0.04483112 -0.040088575 -0.0077642277
0001d0 f2 b3 85 3d 0b a6 fe bc 19 5a e4 3c ba ac 1f 3d
       0.065284625 -0.031085035 0.027874993 0.038983084

fc2.weight f4 [84, 120]
000000 00 a4 ea 3c f0 c6 4a bc d1 23 c2 3b ee 76 a9 bd
       0.028642654 -0.012376532 0.00592468 -0.08274637
000010 e8 4c 0c 3d 86 65 2c bd 9b 90 a7 bd 6f b3 b1 bd
       0.03425303 -0.042089008 -0.08181878 -0.08676802
000020 5c 61 95 3d 2b 9e 55 ba ef 40 9d 3d 20 74 7d bd
       0.072939605 -0.0008148874 0.07678401 -0.061878324
000030 72 19 d6 bc 80 d6 ad 3d 06 4e 56 3d df 03 75 bd
       -0.02613518 0.08488178 0.052320503 -0.059818145
000040 84 81 b0 bd d8 7c 54 3c 2e 2c b5 3d ec 92 06 3d
       -0.08618453 0.012969218 0.08846317 0.03285496
000050 e2 1b 95 bd 03 cc 03 bd 2b c4 3b 3c 4f b0 5f 3c
       -0.07280709 -0.032176983 0.011460344 0.013652875
000060 31 71 22 bc df 8b 83 3d 47 59 b6 bd 13 77 4e bd
       -0.009914682 0.06423163 -0.08903747 -0.050406527
000070 01 18 03 3d c0 a7 f0 bc ec 19 6c 3c 5e 21 51 bb
       0.032005314 -0.029376864 0.014410477 -0.0031910758
000080 cb 47 c4 3c e9 90 ae 3d 29 61 9e bc 08 c3 b3 3d
       0.023960015 0.08523733 -0.019333439 0.08777434
000090 81 32 57 bd ae 2d 1e 3d 95 26 06 bd 69 a0 8d bd
       -0.0525384 0.038617782 -0.03275164 -0.069153614
0000a0 a7 c4 97 3d 94 cc a1 bc 04 19 cb 3d c3 2e 09 bd
       0.07410555 -0.01975087 0.09916881 -0.03349186
0000b0 1a 4a 99 bd b6 c8 5a 3d 01 23 97 bd 37 1f 08 3c
       -0.07484837 0.05341407 -0.07379723 0.008308223
0000c0 fa 11 93 3d d7 97 ac 3d 64 5f 7b 3d 1a 8a da 3c
       0.07181163 0.08427399 0.06137027 0.02667718
0000d0 d2 ab ae bb 4b 06 98 3d 56 44 1d bd 80 61 05 bd
       -0.005330541 0.07423075 -0.03839525 -0.032563686
0000e0 ce 37 93 3c 01 ab 83 3c a7 fd a9 bd e3 65 bb 3d
       0.017970946 0.016072752 -0.083003335 0.09150293
0000f0 47 4a 88 bd 49 ad ec bc 40 c8 12 3d c0 86 26 3c
       -0.06654792 -0.028891223 0.035835505 0.010163963
000100 3c 3a 48 3d 54 46 05 bd 5c 77 ae 3d 5b b1 85 3d
       0.04888366 -0.032537773 0.0851886 0.065279685
000110 39 af 60 ba b0 06 ec bc f2 56 9a bd fa 0c 2c bd
       -0.0008571032 -0.028811783 -0.07536115 -0.042004563
000120 a5 7a 9d 3c 32 3f 9b 3c 00 64 d4 bc af 89 5c bd
       0.01922352 0.018951032 -0.02592659 -0.053842243
000130 d2 9a ca 3b 4c 9c 0c 3c 2d 66 b6 bd 7b fc 17 bd
       0.006183007 0.008582186 -0.08906207 -0.03710602
000140 ee 68 07 3d 6d ba 94 3d 9a 1f a4 bd 4c c6 b1 bb
       0.033059053 0.072621204 -0.0801384 -0.00542525
000150 07 70 80 3d e2 4d 1d bd 8d bf 85 3d d9 6e a0 3d
       0.062713675 -0.038404353 0.06530676 0.078336425
000160 5d 27 82 bd 57 65 69 bd f7 7b a5 3d 00 5c 5c bc
       -0.06355164 -0.05698141 0.08080285 -0.013449669
000170 7c 70 45 bd 36 43 9d 3d f9 94 61 3c 22 24 8c bd
       -0.048202977 0.07678835 0.013768428 -0.06842829
000180 67 e0 90 3d d5 3d 88 3d 47 60 8a bd c1 70 51 bd
       0.07074051 0.066524185 -0.06756645 -0.05113292
000190 32 c3 7d bd 1d 4e ad bd f6 3f 04 3b 71 4e 82 bb
       -0.06195373 -0.084621646 0.0020179725 -0.003976636
0001a0 d6 2f 9e 3b bf a6 d4 3c 60 77 a3 bd 26 8f e9 bc
       0.00482748 0.025958417 -0.07981753 -0.028510641
0001b0 4d 02 fb 3c 75 70 92 bb 28 02 8c bd 4c 94 b1 3d
       0.030640746 -0.0044689723 -0.06836349 0.086708635
0001c0 2b c4 88 3d f7 56 20 3d 29 10 97 3d 64 42 4f 3d
       0.06678041 0.039145436 0.07376129 0.050600424
0001d0 30 05 58 3d cf d6 ad bd fa e2 22 bd b5 01 58 bd
       0.052739322 -0.08488237 -0.039767243 -0.052736003
0001e0 84 9e 97 3d 2c bb fc 3c 3a 89 53 3d 67 7a 34 3d
       0.07403281 0.03085097 0.05164454 0.044062044
0001f0 69 54 5d 3d f9 d0 52 3c bb a3 78 bd 23 79 67 3d
       0.054035578 0.012867206 -0.06070302 0.05651201
000200 fb b9 57 bd d1 c7 10 bc 6b d4 0d 3b bd 8f e0 bc
       -0.0526676 -0.008836702 0.0021641504 -0.02741229
000210 22 b6 0c 3c c1 8c 27 bd 9a 5e 98 bd a8 ba 88 3d
       0.008588346 -0.040905718 -0.07439919 0.06676227
000220 ed ef 9b bb d0 ce 21 bd 85 b8 49 3d 5b 85 dc bc
       -0.004758826 -0.039503872 0.049248237 -0.026919058
000230 99 bd 26 bd fe e0 a4 3d b1 96 99 3b 3c 53 4e 3d
       -0.04070816 0.08050726 0.0046871533 0.050372347
000240 83 3f 31 bd 59 6c 4d bd 1f 40 ae 3d 02 d4 70 3d
       -0.04327346 -0.050152157 0.08508324 0.058795936
000250 71 b1 43 3d f0 84 5f 3d 32 1d 69 bd 5e a8 3f bd
       0.047776643 0.05457014 -0.05691261 -0.046791427
000260 75 16 ae bd 54 34 07 bd 33 51 21 bd ab 2f b9 ba
       -0.08500377 -0.03300889 -0.03938408 -0.0014128586
000270 08 b5 8c 3d 18 d1 fa 3b 2c 8f 06 bd a4 0a 91 3d
       0.068704665 0.0076543204 -0.032851383 0.07082108
000280 e9 fe 59 bd 91 53 84 3d 53 37 04 3d a8 14 20 bc
       -0.053221617 0.064612515 0.032279324 -0.00977055
000290 a0 63 a4 bc 2e 41 98 bd 7b 1f 0d bd 11 ea 94 3d
       -0.020067036 -0.07434307 -0.03445385 0.07271207
0002a0 cd a7 a0 bd d0 4f 8f bd 29 6a b0 3d e6 b5 93 bd
       -0.078445055 -0.06997645 0.086139984 -0.07212429
0002b0 5d 4f 54 3d 38 95 37 3d 8e 4a 75 bc 92 76 c5 3a
       0.0518335 0.04482004 -0.0149713885 0.0015065244
0002c0 f5 0e 76 ba 5a 2a 5c bd c0 83 8d 3d 1a 29 9b 3d
       -0.0009386384 -0.053751327 0.06909895 0.07576199
0002d0 79 e8 5d 3d 8b ee 8d bd 41 69 76 3d 70 81 3d bc
       0.05417678 -0.06930264 0.06015897 -0.011566505
0002e0 83 b1 ab 3d f3 f8 b3 bd 74 f9 fc 3c af 26 ae bc
       0.08383467 -0.08787718 0.030880667 -0.02125868
0002f0 10 c0 14 bd fe 21 39 bd 34 c4 ea 3c 1d 4e b6 bd
       -0.036315978 -0.045198433 0.02865801 -0.08901618
000300 b8 bb ba 3c 67 4b 46 bb 84 67 56 bd 5a e2 12 3d
       0.02279459 -0.0030257346 -0.052344814 0.035860397
000310 47 8a 79 3d cd 9d 05 bd db fd fa 3c 9d 92 e8 bc
       0.060922887 -0.032621194 0.030638626 -0.028390223
000320 2a 51 70 bc 98 da 2f 3c bc ce f3 bc 7c 2a 7e 3d
       -0.0146677885 0.010733269 -0.029761665 0.062052235
000330 ec ef 99 bd a4 a5 a1 3d 00 64 0c bd 0f 1d ad bc
       -0.075164646 0.078929216 -0.034275055 -0.02113202
000340 c1 1c 4c 3d 35 fd 81 bd d1 0c a7 3c 3c 7d c2 3c
       0.04983211 -0.063471235 0.020391854 0.023741357
000350 ee 70 a8 3d 7e 00 a1 3d aa 1e 4b bd 9c d8 ae 3d
       0.08224665 0.07861422 -0.04958979 0.08537409
000360 10 5e a6 3d 32 a7 1d 3b b7 7d 8b bd 14 12 86 bd
       0.0812341 0.0024055955 -0.068110876 -0.06546417
000370 1d 24 56 bd f9 75 bb 3c ca e0 be 3b ba ce 9e 3d
       -0.052280534 0.022883402 0.005825137 0.07754274
000380 6e 03 0e bd c2 cf 08 3d 22 85 6c bb e3 eb 3f bd
       -0.03467124 0.03340126 -0.0036090096 -0.04685582
000390 a1 1f 03 bd 58 f3 17 bd fc 3f 93 bd 5a 2a 2b 3d
       -0.032012586 -0.037097305 -0.071899384 0.041788436
0003a0 fa 32 81 bd 2d 36 12 3d 08 5f 8c bd 2c f7 26 bd
       -0.06308551 0.035696197 -0.06854063 -0.040763065
0003b0 ca c0 ab bd e2 38 35 bc 60 54 8d bd 62 e6 bf bc
       -0.08386381 -0.011060925 -0.06900859 -0.023425285
0003c0 25 d0 33 bd fa 2f 06 bc c0 91 ac 3d 69 6d ab 3d
       -0.043899674 -0.008190149 0.08426237 0.08370478
0003d0 cd f4 d4 3c 74 d0 7c bd 7e fd c2 3d 6f 7b 85 ba
       0.025995636 -0.061722234 0.09521006 -0.0010183881
0003e0 dd 84 81 bd ab aa bb 3b 62 16 10 bc fe a2 80 3c
       -0.0632417 0.0057271323 -0.008794399 0.01570272
0003f0 ab 58 1e 3d cb 59 45 bd e5 ff 03 3d 48 21 b8 bc
       0.03865878 -0.048181336 0.032226462 -0.022476807

fc2.bias f4 [84]
000000 e3 9f 13 3e 27 12 fd bb 25 87 6a 3c a6 a2 a4 3c
       0.1441646 -0.007723111 0.0143144475 0.020097088
000010 d8 c7 6d 3d 3e bc 55 bd 37 0c 92 bd c1 72 c1 3c
       0.058051914 -0.052181475 -0.07131236 0.02361429
000020 53 88 97 3c 1e 3e 3d 3d 07 2e 6a 3d e8 0a b4 bd
       0.018497622 0.046201818 0.0571728 -0.08791143
000030 d7 a1 7a bd 0d 8e d3 bd 82 e3 db 3d 36 a0 7b 3d
       -0.0611895 -0.103298284 0.10736753 0.061432086
000040 21 9f 07 3e ce a8 04 bd 82 a6 41 3d 5e fb 57 3d
       0.13244297 -0.032387547 0.047277935 0.052729957
000050 6f a6 78 bd c9 c9 2e bc 32 4a 88 bc 2f e4 3a bd
       -0.0607056 -0.0106682265 -0.016636942 -0.04562777
000060 90 4d c5 bc 2a ae 05 3d 44 ba cc 3d ac b0 13 3d
       -0.024084836 0.0326368 0.09996465 0.03605716
000070 0a e1 9d bd 42 60 a1 3d 6d b7 bc 3d 9b b2 2d bd
       -0.077089384 0.07879688 0.09214673 -0.04240666
000080 07 3b b8 3d 65 9a 6e bd ca 0a b1 bc f2 09 01 3d
       0.089956336 -0.05825271 -0.02161159 0.031503625
000090 e5 96 39 3c 78 80 74 bd 8d 28 10 3e 60 c3 37 bd
       0.01132748 -0.05969283 0.14077969 -0.04486406
0000a0 f1 04 41 3d 4a 68 9a 3d f3 7e 69 3d 21 b8 b7 3d
       0.047123853 0.07539423 0.057005834 0.08970667
0000b0 c5 ef aa 3c 76 cd 8f bd 80 5e b1 bd 87 82 f5 3c
       0.020866284 -0.070216104 -0.086606026 0.029969467
0000c0 72 5c b3 3b 44 ea 98 bd 44 24 50 bd 2c b9 0c bd
       0.005473667 -0.074665576 -0.050815836 -0.03435628
0000d0 1e 87 7c bd dc 28 4f bd 68 c2 85 bd 9a 59 dc 3d
       -0.061652295 -0.050576076 -0.06531221 0.10759278
0000e0 69 a0 40 3b f8 5c cb 3d fc d9 07 3e a2 72 66 3d
       0.0029392487 0.09929842 0.13266748 0.056261666
0000f0 6d 93 72 bd 76 35 d1 3b 46 02 9c bd b6 88 b3 bd
       -0.059222627 0.006384547 -0.07617621 -0.0876631
000100 f1 19 c2 3c dc de 3c 3d 07 9e b9 bd 61 a9 a5 bd
       0.02369401 0.046110973 -0.090633444 -0.08088947
000110 78 6f 06 3d dc 9b 32 3d 67 61 84 bd 05 7b 69 3d
       0.03282115 0.04360567 -0.064638905 0.057002086
000120 46 aa 35 bd 58 80 3f 3d 30 7e 09 3d b2 3d 1b 3b
       -0.04435184 0.046753258 0.033567607 0.0023687896
000130 2f a7 a3 3d 2e d7 32 3d 1a f6 a1 3d 35 39 57 bb
       0.07990872 0.043662243 0.07908268 -0.0032840495
000140 1c e9 a1 bc e8 8e 66 bc 43 bf a6 3c 5b 91 b6 3c
       -0.019764476 -0.014072157 0.020354873 0.022286108

fc3.weight f4 [2, 84]
000000 df d2 a0 bd f0 7f 2f 3d 19 c6 f4 3b 65 f7 04 3e
       -0.078527205 0.04284662 0.007469904 0.12984999
000010 19 1e 7f bd be 43 18 bd a4 7d a7 3d ce 37 40 3d
       -0.062284563 -0.03717398 0.08178261 0.04692822
000020 6a 64 5b 3d d8 85 60 bd 84 bb 00 3e 75 c5 ad 3d
       0.05356256 -0.054815143 0.12571532 0.084849276
000030 69 bf 33 bc 06 4e d7 3b 96 b4 82 bc 42 b0 81 3d
       -0.010970929 0.0065705804 -0.01595525 0.06332447
000040 84 37 39 be 5b 30 c1 3d b2 f8 93 bd 2e d1 1d bd
       -0.18087584 0.09433051 -0.07225169 -0.038529567
000050 05 87 91 bd 4c e8 48 3d 2f 9d 93 3c 3f 90 d1 bd
       -0.07105831 0.04904966 0.018019287 -0.10232591
000060 51 79 0c bd 50 f0 d7 3d 37 f8 c0 bd 13 7c fe 3d
       -0.034295384 0.10543883 -0.09422343 0.12426009
000070 3d 4d 6b bd e2 48 ee bd 36 5c ef bc 31 37 dd 3d
       -0.057446707 -0.11634995 -0.029218774 0.108015426
000080 ee 43 c9 bd 95 bf 0f 3d 15 be cb bd bb 71 0f 3e
       -0.0982741 0.035094816 -0.09948365 0.14008228
000090 2c cf 8f bd 7e d0 4c 3d b6 e6 91 bd 00 bf 5c bd
       -0.07021937 0.05000352 -0.07124083 -0.05389309
0000a0 fa 9a 2b 3c e5 5a 2e be 26 22 26 bc ea 17 81 bc
       0.010473961 -0.17026861 -0.010139978 -0.015758473
0000b0 50 2b 9b 3d 01 a1 8d 3c be 62 72 3d f2 e8 48 3c
       0.075766206 0.017288687 0.0591762 0.01226257
0000c0 8a 1d 91 bc 1b 00 b9 bc 9c 9c 99 3c df f4 bc bd
       -0.01771428 -0.022583058 0.018751435 -0.09226393
0000d0 e1 62 cb 3d f6 85 3d bb 85 79 0c 3d 7d 36 3a bd
       0.09930969 -0.0028918958 0.034295578 -0.04546212
0000e0 f6 d8 c8 3d 1c 3d ec 3c 46 5d 06 be 1f 96 47 bd
       0.09807007 0.028837733 -0.13121518 -0.04872715
0000f0 d8 a1 04 3c 9d 0b bd 3d bf 52 42 bb b2 99 b4 bc
       0.008095227 0.09230731 -0.0029651371 -0.022045944
000100 14 4a 0a 3c f9 24 9b 3d e1 6e 57 bd 1d 12 05 3e
       0.008440513 0.07575411 -0.052595977 0.12995191
000110 da 2b 0e be 6a d4 19 bd 21 fa 8e 3d ec 82 c9 bd
       -0.13883916 -0.03755609 0.06981302 -0.098394245
000120 9a e4 0a bc bb 11 04 bb 04 3c b2 3c 8f 5c 08 3d
       -0.008477354 -0.002015217 0.021757133 0.033291396
000130 83 5f ca bc 75 10 0b 3d 7d f3 af 3c d3 a1 33 3d
       -0.024703747 0.03395124 0.021478409 0.0438555
000140 38 65 8f 3d f6 fb d7 3d 46 8b a4 3d 5d d6 7b 3d
       0.07001728 0.105461046 0.08034377 0.06148373
000150 bc a2 03 3e 73 3b 60 bd 49 4c f5 bd 08 35 91 bd
       0.12855047 -0.054744195 -0.11977441 -0.07090193
000160 a4 06 97 bd d1 d6 e4 bc f8 65 32 3d 4b 7b 0a 3d
       -0.073743135 -0.027934464 0.043554276 0.033808988
000170 9a 85 31 ba 4e f4 d8 3d ac 14 98 bd 3b 01 60 bd
       -0.00067719223 0.105934724 -0.07425818 -0.054688673
000180 e6 fe 47 bd 80 01 c4 bd 82 85 2f 3e a2 7e 3f 3d
       -0.048827074 -0.095705986 0.17140773 0.046751626
000190 6d 51 0e 3d a3 9d cb 3d dc ba b6 3c 92 79 2d 3d
       0.034745622 0.09942176 0.022305898 0.042352267
0001a0 9e 30 31 3d 1e 3d 34 bd 67 92 16 be 73 02 39 3c
       0.043259256 -0.0440036 -0.14704286 0.011292088
0001b0 b3 f1 0c be 75 26 79 3d 48 4e dc 3d 2c 5d ba bd
       -0.13764076 0.06082769 0.107571185 -0.090998024
0001c0 ec c2 b0 bd 09 6f 60 bd 01 33 ea 3d d7 d5 ce 3d
       -0.086309284 -0.05479339 0.114355095 0.100993805
0001d0 80 d7 43 3d f4 ac 00 bb ae 6f 82 3d 34 95 15 bd
       0.04781294 -0.0019634338 0.063689575 -0.036519244
0001e0 a8 e3 3f bd 82 af 10 3d 33 fa 26 3e 2f b2 10 3d
       -0.04684797 0.035323627 0.16306381 0.03532618
0001f0 f8 95 d1 bc cc 04 96 bc 1f 59 c2 bc f2 7f 85 3b
       -0.025584206 -0.018312834 -0.023724137 0.00407409
000200 96 35 8c 3d 1b e8 1f 3d ff b0 c8 bd e4 a2 87 bd
       0.06846158 0.039039712 -0.09799384 -0.06622866
000210 70 28 a0 3c 35 d7 19 3d 9d 11 ab 3d a7 e9 85 bd
       0.019550532 0.037558753 0.08352969 -0.06538706
000220 4a a0 fa 3c ea 81 ec bb a4 38 ba bd ba 85 34 3e
       0.03059401 -0.0072176354 -0.090928346 0.17629138
000230 b4 72 44 bd 71 32 d4 3d 6c 43 c9 3d 33 a0 bb bc
       -0.047960952 0.103611834 0.09827313 -0.022903537
000240 b4 ce f7 3c c3 d1 00 bd 9b 60 19 bd 12 3d 9c 3d
       0.03024993 -0.031450044 -0.037445646 0.07628836
000250 af fb 99 3d e5 e0 fd bd 62 69 14 bd 4b 42 c5 bd
       0.07518708 -0.12396411 -0.036233313 -0.09631785
000260 d5 b0 1e 3e fd 1b 89 3d 96 4f 08 3c 3b 28 17 3d
       0.15497144 0.066947915 0.008319756 0.0369036
000270 f4 8a b6 bd cc 0a ea bd f3 52 ed bd c1 26 9c bb
       -0.08913222 -0.114278406 -0.11588087 -0.004765362
000280 3e b3 35 3c 27 ab 2e 3b ec a0 44 3c 33 ed 14 bd
       0.011090098 0.0026652308 0.012001257 -0.036359023
000290 d4 42 d1 bd 3b da 92 bd b3 b1 02 bd 33 99 3b 3d
       -0.102178246 -0.071705304 -0.03190775 0.0458004

fc3.bias f4 [2]
000000 76 6f 80 be fb 6a da 3e
       -0.25085038 0.42659745
